"class_name: Sequential\nconfig:\n- class_name: Convolution1D\n  config:\n    W_constraint:\
  \ null\n    W_regularizer: null\n    activation: relu\n    activity_regularizer:\
  \ null\n    b_constraint: null\n    b_regularizer: null\n    batch_input_shape:\
  \ !!python/tuple [null, 1000, 4]\n    bias: true\n    border_mode: valid\n    filter_length:\
  \ 3\n    init: lecun_uniform\n    input_dim: 4\n    input_dtype: float32\n    input_length:\
  \ 1000\n    name: convolution1d_1\n    nb_filter: 256\n    subsample_length: 1\n\
  \    trainable: true\n- class_name: MaxPooling1D\n  config: {border_mode: valid,\
  \ name: maxpooling1d_1, pool_length: 2, stride: 2, trainable: true}\n- class_name:\
  \ Dropout\n  config: {name: dropout_1, p: 0.7, trainable: true}\n- class_name: Convolution1D\n\
  \  config:\n    W_constraint: null\n    W_regularizer: null\n    activation: relu\n\
  \    activity_regularizer: null\n    b_constraint: null\n    b_regularizer: null\n\
  \    batch_input_shape: !!python/tuple [null, 1000, 4]\n    bias: true\n    border_mode:\
  \ valid\n    filter_length: 5\n    init: lecun_uniform\n    input_dim: 4\n    input_dtype:\
  \ float32\n    input_length: 1000\n    name: convolution1d_2\n    nb_filter: 512\n\
  \    subsample_length: 1\n    trainable: true\n- class_name: Convolution1D\n  config:\n\
  \    W_constraint: null\n    W_regularizer: null\n    activation: relu\n    activity_regularizer:\
  \ null\n    b_constraint: null\n    b_regularizer: null\n    batch_input_shape:\
  \ !!python/tuple [null, 1000, 4]\n    bias: true\n    border_mode: valid\n    filter_length:\
  \ 5\n    init: lecun_uniform\n    input_dim: 4\n    input_dtype: float32\n    input_length:\
  \ 1000\n    name: convolution1d_3\n    nb_filter: 512\n    subsample_length: 1\n\
  \    trainable: true\n- class_name: MaxPooling1D\n  config: {border_mode: valid,\
  \ name: maxpooling1d_2, pool_length: 2, stride: 2, trainable: true}\n- class_name:\
  \ Dropout\n  config: {name: dropout_2, p: 0.5, trainable: true}\n- class_name: Flatten\n\
  \  config: {name: flatten_1, trainable: true}\n- class_name: Dense\n  config:\n\
  \    W_constraint: null\n    W_regularizer: null\n    activation: relu\n    activity_regularizer:\
  \ null\n    b_constraint: null\n    b_regularizer: null\n    batch_input_shape:\
  \ !!python/tuple [null, 4096]\n    bias: true\n    init: glorot_uniform\n    input_dim:\
  \ !!python/object/apply:numpy.core.multiarray.scalar\n    - !!python/object/apply:numpy.dtype\n\
  \      args: [i8, 0, 1]\n      state: !!python/tuple [3, <, null, null, null, -1,\
  \ -1, 0]\n    - !!binary |\n      AOoBAAAAAAA=\n    input_dtype: float32\n    name:\
  \ dense_1\n    output_dim: 1024\n    trainable: true\n- class_name: Dropout\n  config:\
  \ {name: dropout_3, p: 0.5, trainable: true}\n- class_name: Dense\n  config:\n \
  \   W_constraint: null\n    W_regularizer: null\n    activation: sigmoid\n    activity_regularizer:\
  \ null\n    b_constraint: null\n    b_regularizer: null\n    batch_input_shape:\
  \ !!python/tuple [null, 1024]\n    bias: true\n    init: glorot_uniform\n    input_dim:\
  \ 1024\n    input_dtype: float32\n    name: dense_2\n    output_dim: 919\n    trainable:\
  \ true\nkeras_version: 1.2.0\n"
