{
  "config": [
    {
      "config": {
        "batch_input_shape": [
          null,
          1000,
          4
        ],
        "W_regularizer": null,
        "subsample_length": 1,
        "activity_regularizer": null,
        "b_regularizer": null,
        "name": "convolution1d_1",
        "filter_length": 3,
        "init": "he_normal",
        "W_constraint": null,
        "trainable": true,
        "b_constraint": null,
        "border_mode": "valid",
        "nb_filter": 64,
        "input_length": 1000,
        "input_dtype": "float32",
        "bias": true,
        "activation": "linear",
        "input_dim": 4
      },
      "class_name": "Convolution1D"
    },
    {
      "config": {
        "trainable": true,
        "activation": "relu",
        "name": "activation_1"
      },
      "class_name": "Activation"
    },
    {
      "config": {
        "trainable": true,
        "axis": -1,
        "beta_regularizer": null,
        "momentum": 0.99,
        "name": "batchnormalization_1",
        "gamma_regularizer": null,
        "epsilon": 0.001,
        "mode": 0
      },
      "class_name": "BatchNormalization"
    },
    {
      "config": {
        "p": 0.2,
        "trainable": true,
        "name": "dropout_1"
      },
      "class_name": "Dropout"
    },
    {
      "config": {
        "W_regularizer": null,
        "subsample_length": 1,
        "activity_regularizer": null,
        "b_regularizer": null,
        "name": "convolution1d_2",
        "filter_length": 3,
        "init": "he_normal",
        "W_constraint": null,
        "trainable": true,
        "b_constraint": null,
        "border_mode": "valid",
        "input_length": null,
        "nb_filter": 64,
        "bias": true,
        "activation": "linear",
        "input_dim": null
      },
      "class_name": "Convolution1D"
    },
    {
      "config": {
        "trainable": true,
        "activation": "relu",
        "name": "activation_2"
      },
      "class_name": "Activation"
    },
    {
      "config": {
        "trainable": true,
        "axis": -1,
        "beta_regularizer": null,
        "momentum": 0.99,
        "name": "batchnormalization_2",
        "gamma_regularizer": null,
        "epsilon": 0.001,
        "mode": 0
      },
      "class_name": "BatchNormalization"
    },
    {
      "config": {
        "p": 0.2,
        "trainable": true,
        "name": "dropout_2"
      },
      "class_name": "Dropout"
    },
    {
      "config": {
        "trainable": true,
        "stride": 2,
        "name": "maxpooling1d_1",
        "border_mode": "valid",
        "pool_length": 2
      },
      "class_name": "MaxPooling1D"
    },
    {
      "config": {
        "W_regularizer": null,
        "subsample_length": 1,
        "activity_regularizer": null,
        "b_regularizer": null,
        "name": "convolution1d_3",
        "filter_length": 3,
        "init": "he_normal",
        "W_constraint": null,
        "trainable": true,
        "b_constraint": null,
        "border_mode": "valid",
        "input_length": null,
        "nb_filter": 128,
        "bias": true,
        "activation": "linear",
        "input_dim": null
      },
      "class_name": "Convolution1D"
    },
    {
      "config": {
        "trainable": true,
        "activation": "relu",
        "name": "activation_3"
      },
      "class_name": "Activation"
    },
    {
      "config": {
        "trainable": true,
        "axis": -1,
        "beta_regularizer": null,
        "momentum": 0.99,
        "name": "batchnormalization_3",
        "gamma_regularizer": null,
        "epsilon": 0.001,
        "mode": 0
      },
      "class_name": "BatchNormalization"
    },
    {
      "config": {
        "p": 0.2,
        "trainable": true,
        "name": "dropout_3"
      },
      "class_name": "Dropout"
    },
    {
      "config": {
        "W_regularizer": null,
        "subsample_length": 1,
        "activity_regularizer": null,
        "b_regularizer": null,
        "name": "convolution1d_4",
        "filter_length": 3,
        "init": "he_normal",
        "W_constraint": null,
        "trainable": true,
        "b_constraint": null,
        "border_mode": "valid",
        "input_length": null,
        "nb_filter": 128,
        "bias": true,
        "activation": "linear",
        "input_dim": null
      },
      "class_name": "Convolution1D"
    },
    {
      "config": {
        "trainable": true,
        "activation": "relu",
        "name": "activation_4"
      },
      "class_name": "Activation"
    },
    {
      "config": {
        "trainable": true,
        "axis": -1,
        "beta_regularizer": null,
        "momentum": 0.99,
        "name": "batchnormalization_4",
        "gamma_regularizer": null,
        "epsilon": 0.001,
        "mode": 0
      },
      "class_name": "BatchNormalization"
    },
    {
      "config": {
        "p": 0.2,
        "trainable": true,
        "name": "dropout_4"
      },
      "class_name": "Dropout"
    },
    {
      "config": {
        "trainable": true,
        "stride": 2,
        "name": "maxpooling1d_2",
        "border_mode": "valid",
        "pool_length": 2
      },
      "class_name": "MaxPooling1D"
    },
    {
      "config": {
        "W_regularizer": null,
        "subsample_length": 1,
        "activity_regularizer": null,
        "b_regularizer": null,
        "name": "convolution1d_5",
        "filter_length": 3,
        "init": "he_normal",
        "W_constraint": null,
        "trainable": true,
        "b_constraint": null,
        "border_mode": "valid",
        "input_length": null,
        "nb_filter": 256,
        "bias": true,
        "activation": "linear",
        "input_dim": null
      },
      "class_name": "Convolution1D"
    },
    {
      "config": {
        "trainable": true,
        "activation": "relu",
        "name": "activation_5"
      },
      "class_name": "Activation"
    },
    {
      "config": {
        "trainable": true,
        "axis": -1,
        "beta_regularizer": null,
        "momentum": 0.99,
        "name": "batchnormalization_5",
        "gamma_regularizer": null,
        "epsilon": 0.001,
        "mode": 0
      },
      "class_name": "BatchNormalization"
    },
    {
      "config": {
        "p": 0.2,
        "trainable": true,
        "name": "dropout_5"
      },
      "class_name": "Dropout"
    },
    {
      "config": {
        "W_regularizer": null,
        "subsample_length": 1,
        "activity_regularizer": null,
        "b_regularizer": null,
        "name": "convolution1d_6",
        "filter_length": 3,
        "init": "he_normal",
        "W_constraint": null,
        "trainable": true,
        "b_constraint": null,
        "border_mode": "valid",
        "input_length": null,
        "nb_filter": 256,
        "bias": true,
        "activation": "linear",
        "input_dim": null
      },
      "class_name": "Convolution1D"
    },
    {
      "config": {
        "trainable": true,
        "activation": "relu",
        "name": "activation_6"
      },
      "class_name": "Activation"
    },
    {
      "config": {
        "trainable": true,
        "axis": -1,
        "beta_regularizer": null,
        "momentum": 0.99,
        "name": "batchnormalization_6",
        "gamma_regularizer": null,
        "epsilon": 0.001,
        "mode": 0
      },
      "class_name": "BatchNormalization"
    },
    {
      "config": {
        "p": 0.2,
        "trainable": true,
        "name": "dropout_6"
      },
      "class_name": "Dropout"
    },
    {
      "config": {
        "W_regularizer": null,
        "subsample_length": 1,
        "activity_regularizer": null,
        "b_regularizer": null,
        "name": "convolution1d_7",
        "filter_length": 3,
        "init": "he_normal",
        "W_constraint": null,
        "trainable": true,
        "b_constraint": null,
        "border_mode": "valid",
        "input_length": null,
        "nb_filter": 256,
        "bias": true,
        "activation": "linear",
        "input_dim": null
      },
      "class_name": "Convolution1D"
    },
    {
      "config": {
        "trainable": true,
        "activation": "relu",
        "name": "activation_7"
      },
      "class_name": "Activation"
    },
    {
      "config": {
        "trainable": true,
        "axis": -1,
        "beta_regularizer": null,
        "momentum": 0.99,
        "name": "batchnormalization_7",
        "gamma_regularizer": null,
        "epsilon": 0.001,
        "mode": 0
      },
      "class_name": "BatchNormalization"
    },
    {
      "config": {
        "p": 0.2,
        "trainable": true,
        "name": "dropout_7"
      },
      "class_name": "Dropout"
    },
    {
      "config": {
        "trainable": true,
        "stride": 2,
        "name": "maxpooling1d_3",
        "border_mode": "valid",
        "pool_length": 2
      },
      "class_name": "MaxPooling1D"
    },
    {
      "config": {
        "W_regularizer": null,
        "subsample_length": 1,
        "activity_regularizer": null,
        "b_regularizer": null,
        "name": "convolution1d_8",
        "filter_length": 3,
        "init": "he_normal",
        "W_constraint": null,
        "trainable": true,
        "b_constraint": null,
        "border_mode": "valid",
        "input_length": null,
        "nb_filter": 512,
        "bias": true,
        "activation": "linear",
        "input_dim": null
      },
      "class_name": "Convolution1D"
    },
    {
      "config": {
        "trainable": true,
        "activation": "relu",
        "name": "activation_8"
      },
      "class_name": "Activation"
    },
    {
      "config": {
        "trainable": true,
        "axis": -1,
        "beta_regularizer": null,
        "momentum": 0.99,
        "name": "batchnormalization_8",
        "gamma_regularizer": null,
        "epsilon": 0.001,
        "mode": 0
      },
      "class_name": "BatchNormalization"
    },
    {
      "config": {
        "p": 0.2,
        "trainable": true,
        "name": "dropout_8"
      },
      "class_name": "Dropout"
    },
    {
      "config": {
        "W_regularizer": null,
        "subsample_length": 1,
        "activity_regularizer": null,
        "b_regularizer": null,
        "name": "convolution1d_9",
        "filter_length": 3,
        "init": "he_normal",
        "W_constraint": null,
        "trainable": true,
        "b_constraint": null,
        "border_mode": "valid",
        "input_length": null,
        "nb_filter": 512,
        "bias": true,
        "activation": "linear",
        "input_dim": null
      },
      "class_name": "Convolution1D"
    },
    {
      "config": {
        "trainable": true,
        "activation": "relu",
        "name": "activation_9"
      },
      "class_name": "Activation"
    },
    {
      "config": {
        "trainable": true,
        "axis": -1,
        "beta_regularizer": null,
        "momentum": 0.99,
        "name": "batchnormalization_9",
        "gamma_regularizer": null,
        "epsilon": 0.001,
        "mode": 0
      },
      "class_name": "BatchNormalization"
    },
    {
      "config": {
        "p": 0.2,
        "trainable": true,
        "name": "dropout_9"
      },
      "class_name": "Dropout"
    },
    {
      "config": {
        "W_regularizer": null,
        "subsample_length": 1,
        "activity_regularizer": null,
        "b_regularizer": null,
        "name": "convolution1d_10",
        "filter_length": 3,
        "init": "he_normal",
        "W_constraint": null,
        "trainable": true,
        "b_constraint": null,
        "border_mode": "valid",
        "input_length": null,
        "nb_filter": 512,
        "bias": true,
        "activation": "linear",
        "input_dim": null
      },
      "class_name": "Convolution1D"
    },
    {
      "config": {
        "trainable": true,
        "activation": "relu",
        "name": "activation_10"
      },
      "class_name": "Activation"
    },
    {
      "config": {
        "trainable": true,
        "axis": -1,
        "beta_regularizer": null,
        "momentum": 0.99,
        "name": "batchnormalization_10",
        "gamma_regularizer": null,
        "epsilon": 0.001,
        "mode": 0
      },
      "class_name": "BatchNormalization"
    },
    {
      "config": {
        "p": 0.2,
        "trainable": true,
        "name": "dropout_10"
      },
      "class_name": "Dropout"
    },
    {
      "config": {
        "trainable": true,
        "stride": 2,
        "name": "maxpooling1d_4",
        "border_mode": "valid",
        "pool_length": 2
      },
      "class_name": "MaxPooling1D"
    },
    {
      "config": {
        "trainable": true,
        "name": "flatten_1"
      },
      "class_name": "Flatten"
    },
    {
      "config": {
        "batch_input_shape": [
          null,
          4096
        ],
        "W_regularizer": null,
        "activity_regularizer": null,
        "b_regularizer": null,
        "name": "dense_1",
        "init": "he_normal",
        "bias": true,
        "W_constraint": null,
        "trainable": true,
        "b_constraint": null,
        "input_dtype": "float32",
        "output_dim": 1024,
        "activation": "linear",
        "input_dim": 29184
      },
      "class_name": "Dense"
    },
    {
      "config": {
        "trainable": true,
        "activation": "relu",
        "name": "activation_11"
      },
      "class_name": "Activation"
    },
    {
      "config": {
        "trainable": true,
        "axis": -1,
        "beta_regularizer": null,
        "momentum": 0.99,
        "name": "batchnormalization_11",
        "gamma_regularizer": null,
        "epsilon": 0.001,
        "mode": 0
      },
      "class_name": "BatchNormalization"
    },
    {
      "config": {
        "p": 0.5,
        "trainable": true,
        "name": "dropout_11"
      },
      "class_name": "Dropout"
    },
    {
      "config": {
        "batch_input_shape": [
          null,
          1024
        ],
        "W_regularizer": null,
        "activity_regularizer": null,
        "b_regularizer": null,
        "name": "dense_2",
        "init": "he_normal",
        "bias": true,
        "W_constraint": null,
        "trainable": true,
        "b_constraint": null,
        "input_dtype": "float32",
        "output_dim": 919,
        "activation": "linear",
        "input_dim": 1024
      },
      "class_name": "Dense"
    },
    {
      "config": {
        "trainable": true,
        "activation": "sigmoid",
        "name": "activation_12"
      },
      "class_name": "Activation"
    }
  ],
  "class_name": "Sequential",
  "keras_version": "1.2.1"
}