{
  "keras_version": "1.2.2",
  "class_name": "Sequential",
  "config": [
    {
      "config": {
        "input_dtype": "float32",
        "input_dim": 4,
        "W_constraint": null,
        "batch_input_shape": [
          null,
          1000,
          4
        ],
        "b_constraint": null,
        "filter_length": 3,
        "activation": "linear",
        "nb_filter": 64,
        "name": "convolution1d_1",
        "init": "he_normal",
        "b_regularizer": null,
        "bias": true,
        "border_mode": "valid",
        "trainable": true,
        "subsample_length": 1,
        "activity_regularizer": null,
        "W_regularizer": null,
        "input_length": 1000
      },
      "class_name": "Convolution1D"
    },
    {
      "config": {
        "trainable": true,
        "name": "activation_1",
        "activation": "relu"
      },
      "class_name": "Activation"
    },
    {
      "config": {
        "mode": 0,
        "name": "batchnormalization_1",
        "momentum": 0.99,
        "beta_regularizer": null,
        "trainable": true,
        "epsilon": 0.001,
        "axis": -1,
        "gamma_regularizer": null
      },
      "class_name": "BatchNormalization"
    },
    {
      "config": {
        "trainable": true,
        "name": "maxpooling1d_1",
        "pool_length": 2,
        "stride": 2,
        "border_mode": "valid"
      },
      "class_name": "MaxPooling1D"
    },
    {
      "config": {
        "input_dim": null,
        "W_constraint": null,
        "b_regularizer": null,
        "b_constraint": null,
        "nb_filter": 64,
        "activation": "linear",
        "filter_length": 3,
        "name": "convolution1d_2",
        "init": "he_normal",
        "bias": true,
        "border_mode": "valid",
        "trainable": true,
        "subsample_length": 1,
        "activity_regularizer": null,
        "W_regularizer": null,
        "input_length": null
      },
      "class_name": "Convolution1D"
    },
    {
      "config": {
        "trainable": true,
        "name": "activation_2",
        "activation": "relu"
      },
      "class_name": "Activation"
    },
    {
      "config": {
        "mode": 0,
        "name": "batchnormalization_2",
        "momentum": 0.99,
        "beta_regularizer": null,
        "trainable": true,
        "epsilon": 0.001,
        "axis": -1,
        "gamma_regularizer": null
      },
      "class_name": "BatchNormalization"
    },
    {
      "config": {
        "input_dim": null,
        "W_constraint": null,
        "b_regularizer": null,
        "b_constraint": null,
        "nb_filter": 128,
        "activation": "linear",
        "filter_length": 3,
        "name": "convolution1d_3",
        "init": "he_normal",
        "bias": true,
        "border_mode": "valid",
        "trainable": true,
        "subsample_length": 1,
        "activity_regularizer": null,
        "W_regularizer": null,
        "input_length": null
      },
      "class_name": "Convolution1D"
    },
    {
      "config": {
        "trainable": true,
        "name": "activation_3",
        "activation": "relu"
      },
      "class_name": "Activation"
    },
    {
      "config": {
        "mode": 0,
        "name": "batchnormalization_3",
        "momentum": 0.99,
        "beta_regularizer": null,
        "trainable": true,
        "epsilon": 0.001,
        "axis": -1,
        "gamma_regularizer": null
      },
      "class_name": "BatchNormalization"
    },
    {
      "config": {
        "trainable": true,
        "name": "dropout_1",
        "p": 0.2
      },
      "class_name": "Dropout"
    },
    {
      "config": {
        "input_dim": null,
        "W_constraint": null,
        "b_regularizer": null,
        "b_constraint": null,
        "nb_filter": 128,
        "activation": "linear",
        "filter_length": 3,
        "name": "convolution1d_4",
        "init": "he_normal",
        "bias": true,
        "border_mode": "valid",
        "trainable": true,
        "subsample_length": 1,
        "activity_regularizer": null,
        "W_regularizer": null,
        "input_length": null
      },
      "class_name": "Convolution1D"
    },
    {
      "config": {
        "trainable": true,
        "name": "activation_4",
        "activation": "relu"
      },
      "class_name": "Activation"
    },
    {
      "config": {
        "mode": 0,
        "name": "batchnormalization_4",
        "momentum": 0.99,
        "beta_regularizer": null,
        "trainable": true,
        "epsilon": 0.001,
        "axis": -1,
        "gamma_regularizer": null
      },
      "class_name": "BatchNormalization"
    },
    {
      "config": {
        "trainable": true,
        "name": "dropout_2",
        "p": 0.2
      },
      "class_name": "Dropout"
    },
    {
      "config": {
        "trainable": true,
        "name": "maxpooling1d_2",
        "pool_length": 2,
        "stride": 2,
        "border_mode": "valid"
      },
      "class_name": "MaxPooling1D"
    },
    {
      "config": {
        "input_dim": null,
        "W_constraint": null,
        "b_regularizer": null,
        "b_constraint": null,
        "nb_filter": 256,
        "activation": "linear",
        "filter_length": 3,
        "name": "convolution1d_5",
        "init": "he_normal",
        "bias": true,
        "border_mode": "valid",
        "trainable": true,
        "subsample_length": 1,
        "activity_regularizer": null,
        "W_regularizer": null,
        "input_length": null
      },
      "class_name": "Convolution1D"
    },
    {
      "config": {
        "trainable": true,
        "name": "activation_5",
        "activation": "relu"
      },
      "class_name": "Activation"
    },
    {
      "config": {
        "mode": 0,
        "name": "batchnormalization_5",
        "momentum": 0.99,
        "beta_regularizer": null,
        "trainable": true,
        "epsilon": 0.001,
        "axis": -1,
        "gamma_regularizer": null
      },
      "class_name": "BatchNormalization"
    },
    {
      "config": {
        "trainable": true,
        "name": "dropout_3",
        "p": 0.2
      },
      "class_name": "Dropout"
    },
    {
      "config": {
        "input_dim": null,
        "W_constraint": null,
        "b_regularizer": null,
        "b_constraint": null,
        "nb_filter": 256,
        "activation": "linear",
        "filter_length": 3,
        "name": "convolution1d_6",
        "init": "he_normal",
        "bias": true,
        "border_mode": "valid",
        "trainable": true,
        "subsample_length": 1,
        "activity_regularizer": null,
        "W_regularizer": null,
        "input_length": null
      },
      "class_name": "Convolution1D"
    },
    {
      "config": {
        "trainable": true,
        "name": "activation_6",
        "activation": "relu"
      },
      "class_name": "Activation"
    },
    {
      "config": {
        "trainable": true,
        "name": "maxpooling1d_3",
        "pool_length": 2,
        "stride": 2,
        "border_mode": "valid"
      },
      "class_name": "MaxPooling1D"
    },
    {
      "config": {
        "trainable": true,
        "name": "bidirectional_1",
        "merge_mode": "concat",
        "layer": {
          "config": {
            "input_dtype": "float32",
            "input_dim": 256,
            "stateful": false,
            "output_dim": 256,
            "inner_activation": "hard_sigmoid",
            "dropout_U": 0.5,
            "W_regularizer": null,
            "init": "he_normal",
            "return_sequences": true,
            "forget_bias_init": "one",
            "unroll": false,
            "input_length": null,
            "U_regularizer": null,
            "batch_input_shape": [
              null,
              null,
              256
            ],
            "inner_init": "orthogonal",
            "consume_less": "cpu",
            "activation": "tanh",
            "name": "lstm_1",
            "go_backwards": false,
            "b_regularizer": null,
            "trainable": true,
            "dropout_W": 0.2
          },
          "class_name": "LSTM"
        }
      },
      "class_name": "Bidirectional"
    },
    {
      "config": {
        "trainable": true,
        "name": "flatten_1"
      },
      "class_name": "Flatten"
    },
    {
      "config": {
        "input_dtype": "float32",
        "input_dim": 61952,
        "W_constraint": null,
        "output_dim": 1024,
        "b_constraint": null,
        "activation": "linear",
        "name": "dense_1",
        "init": "he_normal",
        "bias": true,
        "b_regularizer": null,
        "trainable": true,
        "W_regularizer": null,
        "batch_input_shape": [
          null,
          2048
        ],
        "activity_regularizer": null
      },
      "class_name": "Dense"
    },
    {
      "config": {
        "trainable": true,
        "name": "activation_7",
        "activation": "relu"
      },
      "class_name": "Activation"
    },
    {
      "config": {
        "mode": 0,
        "name": "batchnormalization_6",
        "momentum": 0.99,
        "beta_regularizer": null,
        "trainable": true,
        "epsilon": 0.001,
        "axis": -1,
        "gamma_regularizer": null
      },
      "class_name": "BatchNormalization"
    },
    {
      "config": {
        "trainable": true,
        "name": "dropout_4",
        "p": 0.5
      },
      "class_name": "Dropout"
    },
    {
      "config": {
        "input_dtype": "float32",
        "input_dim": 1024,
        "W_constraint": null,
        "output_dim": 919,
        "b_constraint": null,
        "activation": "linear",
        "name": "dense_2",
        "init": "he_normal",
        "bias": true,
        "b_regularizer": null,
        "trainable": true,
        "W_regularizer": null,
        "batch_input_shape": [
          null,
          1024
        ],
        "activity_regularizer": null
      },
      "class_name": "Dense"
    },
    {
      "config": {
        "trainable": true,
        "name": "activation_8",
        "activation": "sigmoid"
      },
      "class_name": "Activation"
    }
  ]
}