Creating model from conv_net()
Building the model
Compiling model
____________________________________________________________________________________________________
Layer (type)                     Output Shape          Param #     Connected to
====================================================================================================
convolution1d_1 (Convolution1D)  (None, 998, 64)       832         convolution1d_input_1[0][0]
____________________________________________________________________________________________________
prelu_1 (PReLU)                  (None, 998, 64)       63872       convolution1d_1[0][0]
____________________________________________________________________________________________________
batchnormalization_1 (BatchNorma (None, 998, 64)       256         prelu_1[0][0]
____________________________________________________________________________________________________
convolution1d_2 (Convolution1D)  (None, 996, 64)       12352       batchnormalization_1[0][0]
____________________________________________________________________________________________________
prelu_2 (PReLU)                  (None, 996, 64)       63744       convolution1d_2[0][0]
____________________________________________________________________________________________________
batchnormalization_2 (BatchNorma (None, 996, 64)       256         prelu_2[0][0]
____________________________________________________________________________________________________
maxpooling1d_1 (MaxPooling1D)    (None, 498, 64)       0           batchnormalization_2[0][0]
____________________________________________________________________________________________________
convolution1d_3 (Convolution1D)  (None, 496, 128)      24704       maxpooling1d_1[0][0]
____________________________________________________________________________________________________
prelu_3 (PReLU)                  (None, 496, 128)      63488       convolution1d_3[0][0]
____________________________________________________________________________________________________
batchnormalization_3 (BatchNorma (None, 496, 128)      512         prelu_3[0][0]
____________________________________________________________________________________________________
dropout_1 (Dropout)              (None, 496, 128)      0           batchnormalization_3[0][0]
____________________________________________________________________________________________________
convolution1d_4 (Convolution1D)  (None, 494, 128)      49280       dropout_1[0][0]
____________________________________________________________________________________________________
prelu_4 (PReLU)                  (None, 494, 128)      63232       convolution1d_4[0][0]
____________________________________________________________________________________________________
batchnormalization_4 (BatchNorma (None, 494, 128)      512         prelu_4[0][0]
____________________________________________________________________________________________________
maxpooling1d_2 (MaxPooling1D)    (None, 247, 128)      0           batchnormalization_4[0][0]
____________________________________________________________________________________________________
dropout_2 (Dropout)              (None, 247, 128)      0           maxpooling1d_2[0][0]
____________________________________________________________________________________________________
convolution1d_5 (Convolution1D)  (None, 243, 256)      164096      dropout_2[0][0]
____________________________________________________________________________________________________
prelu_5 (PReLU)                  (None, 243, 256)      62208       convolution1d_5[0][0]
____________________________________________________________________________________________________
batchnormalization_5 (BatchNorma (None, 243, 256)      1024        prelu_5[0][0]
____________________________________________________________________________________________________
dropout_3 (Dropout)              (None, 243, 256)      0           batchnormalization_5[0][0]
____________________________________________________________________________________________________
convolution1d_6 (Convolution1D)  (None, 239, 256)      327936      dropout_3[0][0]
____________________________________________________________________________________________________
prelu_6 (PReLU)                  (None, 239, 256)      61184       convolution1d_6[0][0]
____________________________________________________________________________________________________
maxpooling1d_3 (MaxPooling1D)    (None, 119, 256)      0           prelu_6[0][0]
____________________________________________________________________________________________________
flatten_1 (Flatten)              (None, 30464)         0           maxpooling1d_3[0][0]
____________________________________________________________________________________________________
dense_1 (Dense)                  (None, 1024)          31196160    flatten_1[0][0]
____________________________________________________________________________________________________
prelu_7 (PReLU)                  (None, 1024)          1024        dense_1[0][0]
____________________________________________________________________________________________________
batchnormalization_6 (BatchNorma (None, 1024)          4096        prelu_7[0][0]
____________________________________________________________________________________________________
dropout_4 (Dropout)              (None, 1024)          0           batchnormalization_6[0][0]
____________________________________________________________________________________________________
dense_2 (Dense)                  (None, 919)           941975      dropout_4[0][0]
____________________________________________________________________________________________________
activation_1 (Activation)        (None, 919)           0           dense_2[0][0]
====================================================================================================
Total params: 33,102,743
Trainable params: 33,099,415
Non-trainable params: 3,328
____________________________________________________________________________________________________
Saving models in json and yaml format to models/json/conv_net_22.json and  models/yaml/conv_net_22.yaml
…
