Creating model from conv_net()
Building the model
Compiling model
____________________________________________________________________________________________________
Layer (type)			 Output Shape	       Param #	   Connected to
====================================================================================================
convolution1d_1 (Convolution1D)  (None, 998, 64)       832	   convolution1d_input_1[0][0]
____________________________________________________________________________________________________
activation_1 (Activation)	 (None, 998, 64)       0	   convolution1d_1[0][0]
____________________________________________________________________________________________________
batchnormalization_1 (BatchNorma (None, 998, 64)       256	   activation_1[0][0]
____________________________________________________________________________________________________
convolution1d_2 (Convolution1D)  (None, 996, 64)       12352	   batchnormalization_1[0][0]
____________________________________________________________________________________________________
activation_2 (Activation)	 (None, 996, 64)       0	   convolution1d_2[0][0]
____________________________________________________________________________________________________
batchnormalization_2 (BatchNorma (None, 996, 64)       256	   activation_2[0][0]
____________________________________________________________________________________________________
maxpooling1d_1 (MaxPooling1D)	 (None, 498, 64)       0	   batchnormalization_2[0][0]
____________________________________________________________________________________________________
convolution1d_3 (Convolution1D)  (None, 496, 128)      24704	   maxpooling1d_1[0][0]
____________________________________________________________________________________________________
activation_3 (Activation)	 (None, 496, 128)      0	   convolution1d_3[0][0]
____________________________________________________________________________________________________
batchnormalization_3 (BatchNorma (None, 496, 128)      512	   activation_3[0][0]
____________________________________________________________________________________________________
dropout_1 (Dropout)		 (None, 496, 128)      0	   batchnormalization_3[0][0]
____________________________________________________________________________________________________
convolution1d_4 (Convolution1D)  (None, 494, 128)      49280	   dropout_1[0][0]
____________________________________________________________________________________________________
activation_4 (Activation)	 (None, 494, 128)      0	   convolution1d_4[0][0]
____________________________________________________________________________________________________
batchnormalization_4 (BatchNorma (None, 494, 128)      512	   activation_4[0][0]
____________________________________________________________________________________________________
maxpooling1d_2 (MaxPooling1D)	 (None, 247, 128)      0	   batchnormalization_4[0][0]
____________________________________________________________________________________________________
dropout_2 (Dropout)		 (None, 247, 128)      0	   maxpooling1d_2[0][0]
____________________________________________________________________________________________________
convolution1d_5 (Convolution1D)  (None, 243, 256)      164096	   dropout_2[0][0]
____________________________________________________________________________________________________
activation_5 (Activation)	 (None, 243, 256)      0	   convolution1d_5[0][0]
____________________________________________________________________________________________________
batchnormalization_5 (BatchNorma (None, 243, 256)      1024	   activation_5[0][0]
____________________________________________________________________________________________________
dropout_3 (Dropout)		 (None, 243, 256)      0	   batchnormalization_5[0][0]
____________________________________________________________________________________________________
convolution1d_6 (Convolution1D)  (None, 239, 256)      327936	   dropout_3[0][0]
____________________________________________________________________________________________________
activation_6 (Activation)	 (None, 239, 256)      0	   convolution1d_6[0][0]
____________________________________________________________________________________________________
maxpooling1d_3 (MaxPooling1D)	 (None, 119, 256)      0	   activation_6[0][0]
____________________________________________________________________________________________________
flatten_1 (Flatten)		 (None, 30464)	       0	   maxpooling1d_3[0][0]
____________________________________________________________________________________________________
dense_1 (Dense) 		 (None, 1024)	       31196160    flatten_1[0][0]
____________________________________________________________________________________________________
…
