2017-03-16 00:42:40,088 src.models.keras_model_utils INFO     Creating model from conv_net()
2017-03-16 00:42:40,088 src.models.create_models INFO     Building the model
2017-03-16 00:42:42,284 src.models.create_models INFO     Compiling model
____________________________________________________________________________________________________
Layer (type)                     Output Shape          Param #     Connected to
====================================================================================================
input_1 (InputLayer)             (None, 1000, 4)       0
____________________________________________________________________________________________________
convolution1d_1 (Convolution1D)  (None, 998, 64)       832         input_1[0][0]
____________________________________________________________________________________________________
activation_1 (Activation)        (None, 998, 64)       0           convolution1d_1[0][0]
____________________________________________________________________________________________________
batchnormalization_1 (BatchNorma (None, 998, 64)       256         activation_1[0][0]
____________________________________________________________________________________________________
maxpooling1d_1 (MaxPooling1D)    (None, 499, 64)       0           batchnormalization_1[0][0]
____________________________________________________________________________________________________
convolution1d_2 (Convolution1D)  (None, 497, 64)       12352       maxpooling1d_1[0][0]
____________________________________________________________________________________________________
activation_2 (Activation)        (None, 497, 64)       0           convolution1d_2[0][0]
____________________________________________________________________________________________________
batchnormalization_2 (BatchNorma (None, 497, 64)       256         activation_2[0][0]
____________________________________________________________________________________________________
dropout_1 (Dropout)              (None, 497, 64)       0           batchnormalization_2[0][0]
____________________________________________________________________________________________________
maxpooling1d_2 (MaxPooling1D)    (None, 248, 64)       0           dropout_1[0][0]
____________________________________________________________________________________________________
convolution1d_3 (Convolution1D)  (None, 246, 128)      24704       maxpooling1d_2[0][0]
____________________________________________________________________________________________________
activation_3 (Activation)        (None, 246, 128)      0           convolution1d_3[0][0]
____________________________________________________________________________________________________
batchnormalization_3 (BatchNorma (None, 246, 128)      512         activation_3[0][0]
____________________________________________________________________________________________________
convolution1d_4 (Convolution1D)  (None, 244, 128)      49280       batchnormalization_3[0][0]
____________________________________________________________________________________________________
activation_4 (Activation)        (None, 244, 128)      0           convolution1d_4[0][0]
____________________________________________________________________________________________________
batchnormalization_4 (BatchNorma (None, 244, 128)      512         activation_4[0][0]
____________________________________________________________________________________________________
dropout_2 (Dropout)              (None, 244, 128)      0           batchnormalization_4[0][0]
____________________________________________________________________________________________________
maxpooling1d_3 (MaxPooling1D)    (None, 122, 128)      0           dropout_2[0][0]
____________________________________________________________________________________________________
convolution1d_5 (Convolution1D)  (None, 120, 256)      98560       maxpooling1d_3[0][0]
____________________________________________________________________________________________________
activation_5 (Activation)        (None, 120, 256)      0           convolution1d_5[0][0]
____________________________________________________________________________________________________
batchnormalization_5 (BatchNorma (None, 120, 256)      1024        activation_5[0][0]
____________________________________________________________________________________________________
dropout_3 (Dropout)              (None, 120, 256)      0           batchnormalization_5[0][0]
____________________________________________________________________________________________________
convolution1d_6 (Convolution1D)  (None, 118, 256)      196864      dropout_3[0][0]
____________________________________________________________________________________________________
activation_6 (Activation)        (None, 118, 256)      0           convolution1d_6[0][0]
____________________________________________________________________________________________________
batchnormalization_6 (BatchNorma (None, 118, 256)      1024        activation_6[0][0]
____________________________________________________________________________________________________
dropout_4 (Dropout)              (None, 118, 256)      0           batchnormalization_6[0][0]
____________________________________________________________________________________________________
maxpooling1d_4 (MaxPooling1D)    (None, 59, 256)       0           dropout_4[0][0]
____________________________________________________________________________________________________
bidirectional_1 (Bidirectional)  (None, 59, 512)       787968      maxpooling1d_4[0][0]
____________________________________________________________________________________________________
flatten_1 (Flatten)              (None, 30208)         0           bidirectional_1[0][0]
____________________________________________________________________________________________________
dense_1 (Dense)                  (None, 1024)          30934016    flatten_1[0][0]
____________________________________________________________________________________________________
activation_7 (Activation)        (None, 1024)          0           dense_1[0][0]
____________________________________________________________________________________________________
batchnormalization_7 (BatchNorma (None, 1024)          4096        activation_7[0][0]
____________________________________________________________________________________________________
dropout_5 (Dropout)              (None, 1024)          0           batchnormalization_7[0][0]
____________________________________________________________________________________________________
dense_2 (Dense)                  (None, 919)           941975      dropout_5[0][0]
____________________________________________________________________________________________________
activation_8 (Activation)        (None, 919)           0           dense_2[0][0]
====================================================================================================
Total params: 33,054,231
Trainable params: 33,050,391
Non-trainable params: 3,840
____________________________________________________________________________________________________
2017-03-16 00:42:43,597 __main__     INFO     Retrieving train data...
2017-03-16 00:43:52,568 __main__     INFO     Retrieving validation data...
…
