…
Retrieving train, validation, and test data
Building the model
Compiling model
Saving models in json and yaml format to models/json/conv_net_10.json and  models/yaml/conv_net_10.yaml
Saving weights to models/weights/conv_net_10.hdf5 and epoch logs to logs/half_set/conv_net_10.csv
Loading weights from models/weights/conv_net_10.hdf5 if it exists
____________________________________________________________________________________________________
Layer (type)			 Output Shape	       Param #	   Connected to
====================================================================================================
convolution1d_1 (Convolution1D)  (None, 998, 128)      1664	   convolution1d_input_1[0][0]
____________________________________________________________________________________________________
activation_1 (Activation)	 (None, 998, 128)      0	   convolution1d_1[0][0]
____________________________________________________________________________________________________
maxpooling1d_1 (MaxPooling1D)	 (None, 499, 128)      0	   activation_1[0][0]
____________________________________________________________________________________________________
convolution1d_2 (Convolution1D)  (None, 497, 256)      98560	   maxpooling1d_1[0][0]
____________________________________________________________________________________________________
activation_2 (Activation)	 (None, 497, 256)      0	   convolution1d_2[0][0]
____________________________________________________________________________________________________
maxpooling1d_2 (MaxPooling1D)	 (None, 248, 256)      0	   activation_2[0][0]
____________________________________________________________________________________________________
convolution1d_3 (Convolution1D)  (None, 244, 512)      655872	   maxpooling1d_2[0][0]
____________________________________________________________________________________________________
activation_3 (Activation)	 (None, 244, 512)      0	   convolution1d_3[0][0]
____________________________________________________________________________________________________
maxpooling1d_3 (MaxPooling1D)	 (None, 122, 512)      0	   activation_3[0][0]
____________________________________________________________________________________________________
convolution1d_4 (Convolution1D)  (None, 118, 512)      1311232	   maxpooling1d_3[0][0]
____________________________________________________________________________________________________
activation_4 (Activation)	 (None, 118, 512)      0	   convolution1d_4[0][0]
____________________________________________________________________________________________________
maxpooling1d_4 (MaxPooling1D)	 (None, 59, 512)       0	   activation_4[0][0]
____________________________________________________________________________________________________
flatten_1 (Flatten)		 (None, 30208)	       0	   maxpooling1d_4[0][0]
____________________________________________________________________________________________________
dense_1 (Dense) 		 (None, 1024)	       30934016    flatten_1[0][0]
____________________________________________________________________________________________________
…
