
Creating model from conv_net()
Building the model
Compiling model
____________________________________________________________________________________________________
Layer (type)			 Output Shape	       Param #	   Connected to
====================================================================================================
convolution1d_1 (Convolution1D)  (None, 998, 64)       832	   convolution1d_input_1[0][0]
____________________________________________________________________________________________________
prelu_1 (PReLU) 		 (None, 998, 64)       63872	   convolution1d_1[0][0]
____________________________________________________________________________________________________
batchnormalization_1 (BatchNorma (None, 998, 64)       256	   prelu_1[0][0]
____________________________________________________________________________________________________
convolution1d_2 (Convolution1D)  (None, 996, 64)       12352	   batchnormalization_1[0][0]
____________________________________________________________________________________________________
prelu_2 (PReLU) 		 (None, 996, 64)       63744	   convolution1d_2[0][0]
____________________________________________________________________________________________________
batchnormalization_2 (BatchNorma (None, 996, 64)       256	   prelu_2[0][0]
____________________________________________________________________________________________________
convolution1d_3 (Convolution1D)  (None, 994, 128)      24704	   batchnormalization_2[0][0]
____________________________________________________________________________________________________
prelu_3 (PReLU) 		 (None, 994, 128)      127232	   convolution1d_3[0][0]
____________________________________________________________________________________________________
batchnormalization_3 (BatchNorma (None, 994, 128)      512	   prelu_3[0][0]
____________________________________________________________________________________________________
dropout_1 (Dropout)		 (None, 994, 128)      0	   batchnormalization_3[0][0]
____________________________________________________________________________________________________
convolution1d_4 (Convolution1D)  (None, 496, 128)      49280	   dropout_1[0][0]
____________________________________________________________________________________________________
prelu_4 (PReLU) 		 (None, 496, 128)      63488	   convolution1d_4[0][0]
____________________________________________________________________________________________________
batchnormalization_4 (BatchNorma (None, 496, 128)      512	   prelu_4[0][0]
____________________________________________________________________________________________________
dropout_2 (Dropout)		 (None, 496, 128)      0	   batchnormalization_4[0][0]
____________________________________________________________________________________________________
convolution1d_5 (Convolution1D)  (None, 246, 256)      164096	   dropout_2[0][0]
____________________________________________________________________________________________________
prelu_5 (PReLU) 		 (None, 246, 256)      62976	   convolution1d_5[0][0]
____________________________________________________________________________________________________
batchnormalization_5 (BatchNorma (None, 246, 256)      1024	   prelu_5[0][0]
____________________________________________________________________________________________________
dropout_3 (Dropout)		 (None, 246, 256)      0	   batchnormalization_5[0][0]
____________________________________________________________________________________________________
convolution1d_6 (Convolution1D)  (None, 121, 256)      327936	   dropout_3[0][0]
____________________________________________________________________________________________________
prelu_6 (PReLU) 		 (None, 121, 256)      30976	   convolution1d_6[0][0]
____________________________________________________________________________________________________
batchnormalization_6 (BatchNorma (None, 121, 256)      1024	   prelu_6[0][0]
____________________________________________________________________________________________________
dropout_4 (Dropout)		 (None, 121, 256)      0	   batchnormalization_6[0][0]
____________________________________________________________________________________________________
convolution1d_7 (Convolution1D)  (None, 1, 919)        28467863    dropout_4[0][0]
____________________________________________________________________________________________________
activation_1 (Activation)	 (None, 1, 919)        0	   convolution1d_7[0][0]
====================================================================================================
Total params: 29,462,935
Trainable params: 29,461,143
Non-trainable params: 1,792
____________________________________________________________________________________________________
Saving models in json and yaml format to models/json/conv_net_24.json and  models/yaml/conv_net_24.yaml
…
The date is 02/23/2017
The time is 09:03:44 AM

Loading weights from models/weights/conv_net_24.hdf5 if it exists
Running at most 70 epochs

Creating model from conv_net()
Building the model

Creating model from conv_net()
Building the model

Creating model from conv_net()
Building the model
Compiling model
____________________________________________________________________________________________________
Layer (type)			 Output Shape	       Param #	   Connected to
====================================================================================================
convolution1d_1 (Convolution1D)  (None, 998, 64)       832	   convolution1d_input_1[0][0]
____________________________________________________________________________________________________
prelu_1 (PReLU) 		 (None, 998, 64)       63872	   convolution1d_1[0][0]
____________________________________________________________________________________________________
batchnormalization_1 (BatchNorma (None, 998, 64)       256	   prelu_1[0][0]
____________________________________________________________________________________________________
convolution1d_2 (Convolution1D)  (None, 996, 64)       12352	   batchnormalization_1[0][0]
____________________________________________________________________________________________________
prelu_2 (PReLU) 		 (None, 996, 64)       63744	   convolution1d_2[0][0]
____________________________________________________________________________________________________
batchnormalization_2 (BatchNorma (None, 996, 64)       256	   prelu_2[0][0]
____________________________________________________________________________________________________
convolution1d_3 (Convolution1D)  (None, 497, 128)      24704	   batchnormalization_2[0][0]
____________________________________________________________________________________________________
prelu_3 (PReLU) 		 (None, 497, 128)      63616	   convolution1d_3[0][0]
____________________________________________________________________________________________________
batchnormalization_3 (BatchNorma (None, 497, 128)      512	   prelu_3[0][0]
____________________________________________________________________________________________________
dropout_1 (Dropout)		 (None, 497, 128)      0	   batchnormalization_3[0][0]
____________________________________________________________________________________________________
convolution1d_4 (Convolution1D)  (None, 248, 128)      49280	   dropout_1[0][0]
____________________________________________________________________________________________________
prelu_4 (PReLU) 		 (None, 248, 128)      31744	   convolution1d_4[0][0]
____________________________________________________________________________________________________
batchnormalization_4 (BatchNorma (None, 248, 128)      512	   prelu_4[0][0]
____________________________________________________________________________________________________
dropout_2 (Dropout)		 (None, 248, 128)      0	   batchnormalization_4[0][0]
____________________________________________________________________________________________________
convolution1d_5 (Convolution1D)  (None, 122, 256)      164096	   dropout_2[0][0]
____________________________________________________________________________________________________
prelu_5 (PReLU) 		 (None, 122, 256)      31232	   convolution1d_5[0][0]
____________________________________________________________________________________________________
batchnormalization_5 (BatchNorma (None, 122, 256)      1024	   prelu_5[0][0]
____________________________________________________________________________________________________
dropout_3 (Dropout)		 (None, 122, 256)      0	   batchnormalization_5[0][0]
____________________________________________________________________________________________________
convolution1d_6 (Convolution1D)  (None, 59, 256)       327936	   dropout_3[0][0]
____________________________________________________________________________________________________
prelu_6 (PReLU) 		 (None, 59, 256)       15104	   convolution1d_6[0][0]
____________________________________________________________________________________________________
batchnormalization_6 (BatchNorma (None, 59, 256)       1024	   prelu_6[0][0]
____________________________________________________________________________________________________
flatten_1 (Flatten)		 (None, 15104)	       0	   batchnormalization_6[0][0]
____________________________________________________________________________________________________
dense_1 (Dense) 		 (None, 1024)	       15467520    flatten_1[0][0]
____________________________________________________________________________________________________
…
