2017-03-23 02:01:36,302 src.models.keras_model_utils INFO     Creating model from conv_net()...
2017-03-23 02:01:36,302 src.models.create_models INFO     Building the model
2017-03-23 02:01:37,356 src.models.create_models INFO     Compiling model
____________________________________________________________________________________________________
Layer (type)                     Output Shape          Param #     Connected to
====================================================================================================
input (InputLayer)               (None, 1000, 4)       0
____________________________________________________________________________________________________
block1_conv1 (Convolution1D)     (None, 998, 64)       832         input[0][0]
____________________________________________________________________________________________________
activation_1 (Activation)        (None, 998, 64)       0           block1_conv1[0][0]
____________________________________________________________________________________________________
batchnormalization_1 (BatchNorma (None, 998, 64)       256         activation_1[0][0]
____________________________________________________________________________________________________
block1_pool1 (MaxPooling1D)      (None, 499, 64)       0           batchnormalization_1[0][0]
____________________________________________________________________________________________________
block1_conv2 (Convolution1D)     (None, 497, 64)       12352       block1_pool1[0][0]
____________________________________________________________________________________________________
activation_2 (Activation)        (None, 497, 64)       0           block1_conv2[0][0]
____________________________________________________________________________________________________
batchnormalization_2 (BatchNorma (None, 497, 64)       256         activation_2[0][0]
____________________________________________________________________________________________________
block1_pool2 (MaxPooling1D)      (None, 248, 64)       0           batchnormalization_2[0][0]
____________________________________________________________________________________________________
block2_conv1 (Convolution1D)     (None, 246, 128)      24704       block1_pool2[0][0]
____________________________________________________________________________________________________
activation_3 (Activation)        (None, 246, 128)      0           block2_conv1[0][0]
____________________________________________________________________________________________________
batchnormalization_3 (BatchNorma (None, 246, 128)      512         activation_3[0][0]
____________________________________________________________________________________________________
block2_conv2 (Convolution1D)     (None, 244, 128)      49280       batchnormalization_3[0][0]
____________________________________________________________________________________________________
activation_4 (Activation)        (None, 244, 128)      0           block2_conv2[0][0]
____________________________________________________________________________________________________
batchnormalization_4 (BatchNorma (None, 244, 128)      512         activation_4[0][0]
____________________________________________________________________________________________________
block2_dropout1 (Dropout)        (None, 244, 128)      0           batchnormalization_4[0][0]
____________________________________________________________________________________________________
block2_pool1 (MaxPooling1D)      (None, 122, 128)      0           block2_dropout1[0][0]
____________________________________________________________________________________________________
block3_conv1 (Convolution1D)     (None, 120, 256)      98560       block2_pool1[0][0]
____________________________________________________________________________________________________
activation_5 (Activation)        (None, 120, 256)      0           block3_conv1[0][0]
____________________________________________________________________________________________________
batchnormalization_5 (BatchNorma (None, 120, 256)      1024        activation_5[0][0]
____________________________________________________________________________________________________
block3_dropout1 (Dropout)        (None, 120, 256)      0           batchnormalization_5[0][0]
____________________________________________________________________________________________________
block3_pool1 (MaxPooling1D)      (None, 60, 256)       0           block3_dropout1[0][0]
____________________________________________________________________________________________________
block3_conv2 (Convolution1D)     (None, 58, 256)       196864      block3_pool1[0][0]
____________________________________________________________________________________________________
activation_6 (Activation)        (None, 58, 256)       0           block3_conv2[0][0]
____________________________________________________________________________________________________
batchnormalization_6 (BatchNorma (None, 58, 256)       1024        activation_6[0][0]
____________________________________________________________________________________________________
block3_dropout2 (Dropout)        (None, 58, 256)       0           batchnormalization_6[0][0]
____________________________________________________________________________________________________
block3_pool2 (MaxPooling1D)      (None, 29, 256)       0           block3_dropout2[0][0]
____________________________________________________________________________________________________
block4_conv1 (Convolution1D)     (None, 27, 512)       393728      block3_pool2[0][0]
____________________________________________________________________________________________________
activation_7 (Activation)        (None, 27, 512)       0           block4_conv1[0][0]
____________________________________________________________________________________________________
batchnormalization_7 (BatchNorma (None, 27, 512)       2048        activation_7[0][0]
____________________________________________________________________________________________________
block4_dropout1 (Dropout)        (None, 27, 512)       0           batchnormalization_7[0][0]
____________________________________________________________________________________________________
block4_pool1 (MaxPooling1D)      (None, 13, 512)       0           block4_dropout1[0][0]
____________________________________________________________________________________________________
block4_conv2 (Convolution1D)     (None, 11, 512)       786944      block4_pool1[0][0]
____________________________________________________________________________________________________
activation_8 (Activation)        (None, 11, 512)       0           block4_conv2[0][0]
____________________________________________________________________________________________________
batchnormalization_8 (BatchNorma (None, 11, 512)       2048        activation_8[0][0]
____________________________________________________________________________________________________
dropout1 (Dropout)               (None, 11, 512)       0           batchnormalization_8[0][0]
____________________________________________________________________________________________________
dropout1_pool1 (MaxPooling1D)    (None, 5, 512)        0           dropout1[0][0]
____________________________________________________________________________________________________
bidirectional_1 (Bidirectional)  (None, 5, 512)        1181184     dropout1_pool1[0][0]
____________________________________________________________________________________________________
gru_dropout1 (Dropout)           (None, 5, 512)        0           bidirectional_1[0][0]
____________________________________________________________________________________________________
flatten (Flatten)                (None, 2560)          0           gru_dropout1[0][0]
____________________________________________________________________________________________________
fc1 (Dense)                      (None, 1024)          2622464     flatten[0][0]
____________________________________________________________________________________________________
activation_9 (Activation)        (None, 1024)          0           fc1[0][0]
____________________________________________________________________________________________________
batchnormalization_9 (BatchNorma (None, 1024)          4096        activation_9[0][0]
____________________________________________________________________________________________________
fc1_dropout (Dropout)            (None, 1024)          0           batchnormalization_9[0][0]
____________________________________________________________________________________________________
fc2 (Dense)                      (None, 919)           941975      fc1_dropout[0][0]
____________________________________________________________________________________________________
fc2_sigmoid (Activation)         (None, 919)           0           fc2[0][0]
====================================================================================================
Total params: 6,320,663
Trainable params: 6,314,775
Non-trainable params: 5,888
____________________________________________________________________________________________________
2017-03-23 02:01:37,392 __main__     INFO

2017-03-23 02:01:37,392 __main__     INFO     Loading model weights...
…
