Retrieving train, validation, and test data
Building the model
Compiling model
Saving models in json and yaml format to models/json/conv_net_12.json and  models/yaml/conv_net_12.yaml
Saving weights to models/weights/conv_net_12.hdf5 and epoch logs to models/run_logs/conv_net_12.csv
____________________________________________________________________________________________________
Layer (type)                     Output Shape          Param #     Connected to
====================================================================================================
convolution1d_1 (Convolution1D)  (None, 998, 64)       832         convolution1d_input_1[0][0]
____________________________________________________________________________________________________
activation_1 (Activation)        (None, 998, 64)       0           convolution1d_1[0][0]
____________________________________________________________________________________________________
batchnormalization_1 (BatchNorma (None, 998, 64)       256         activation_1[0][0]
____________________________________________________________________________________________________
maxpooling1d_1 (MaxPooling1D)    (None, 499, 64)       0           batchnormalization_1[0][0]
____________________________________________________________________________________________________
dropout_1 (Dropout)              (None, 499, 64)       0           maxpooling1d_1[0][0]
____________________________________________________________________________________________________
convolution1d_2 (Convolution1D)  (None, 497, 128)      24704       dropout_1[0][0]
____________________________________________________________________________________________________
activation_2 (Activation)        (None, 497, 128)      0           convolution1d_2[0][0]
____________________________________________________________________________________________________
batchnormalization_2 (BatchNorma (None, 497, 128)      512         activation_2[0][0]
____________________________________________________________________________________________________
maxpooling1d_2 (MaxPooling1D)    (None, 248, 128)      0           batchnormalization_2[0][0]
____________________________________________________________________________________________________
dropout_2 (Dropout)              (None, 248, 128)      0           maxpooling1d_2[0][0]
____________________________________________________________________________________________________
convolution1d_3 (Convolution1D)  (None, 246, 256)      98560       dropout_2[0][0]
____________________________________________________________________________________________________
activation_3 (Activation)        (None, 246, 256)      0           convolution1d_3[0][0]
____________________________________________________________________________________________________
batchnormalization_3 (BatchNorma (None, 246, 256)      1024        activation_3[0][0]
____________________________________________________________________________________________________
maxpooling1d_3 (MaxPooling1D)    (None, 123, 256)      0           batchnormalization_3[0][0]
____________________________________________________________________________________________________
dropout_3 (Dropout)              (None, 123, 256)      0           maxpooling1d_3[0][0]
____________________________________________________________________________________________________
convolution1d_4 (Convolution1D)  (None, 119, 512)      655872      dropout_3[0][0]
____________________________________________________________________________________________________
activation_4 (Activation)        (None, 119, 512)      0           convolution1d_4[0][0]
____________________________________________________________________________________________________
batchnormalization_4 (BatchNorma (None, 119, 512)      2048        activation_4[0][0]
____________________________________________________________________________________________________
maxpooling1d_4 (MaxPooling1D)    (None, 59, 512)       0           batchnormalization_4[0][0]
____________________________________________________________________________________________________
dropout_4 (Dropout)              (None, 59, 512)       0           maxpooling1d_4[0][0]
____________________________________________________________________________________________________
convolution1d_5 (Convolution1D)  (None, 55, 512)       1311232     dropout_4[0][0]
____________________________________________________________________________________________________
activation_5 (Activation)        (None, 55, 512)       0           convolution1d_5[0][0]
____________________________________________________________________________________________________
maxpooling1d_5 (MaxPooling1D)    (None, 27, 512)       0           activation_5[0][0]
____________________________________________________________________________________________________
flatten_1 (Flatten)              (None, 13824)         0           maxpooling1d_5[0][0]
____________________________________________________________________________________________________
dense_1 (Dense)                  (None, 1024)          14156800    flatten_1[0][0]
____________________________________________________________________________________________________
activation_6 (Activation)        (None, 1024)          0           dense_1[0][0]
____________________________________________________________________________________________________
batchnormalization_5 (BatchNorma (None, 1024)          4096        activation_6[0][0]
____________________________________________________________________________________________________
dropout_5 (Dropout)              (None, 1024)          0           batchnormalization_5[0][0]
____________________________________________________________________________________________________
dense_2 (Dense)                  (None, 919)           941975      dropout_5[0][0]
____________________________________________________________________________________________________
activation_7 (Activation)        (None, 919)           0           dense_2[0][0]
====================================================================================================
Total params: 17,197,911
Trainable params: 17,193,943
Non-trainable params: 3,968
____________________________________________________________________________________________________

The date is 02/11/2017
The time is 06:23:53 PM

Loading weights from models/weights/conv_net_12.hdf5 if it exists
…
