2017-03-17 22:18:32,826 src.models.keras_model_utils INFO     Creating model from conv_net()
2017-03-17 22:18:32,826 src.models.create_models INFO     Building the model
2017-03-17 22:18:34,053 src.models.create_models INFO     Compiling model
____________________________________________________________________________________________________
Layer (type)                     Output Shape          Param #     Connected to
====================================================================================================
input (InputLayer)               (None, 1000, 4)       0
____________________________________________________________________________________________________
block1_conv1 (Convolution1D)     (None, 998, 64)       832         input[0][0]
____________________________________________________________________________________________________
block1_prelu1 (PReLU)            (None, 998, 64)       63872       block1_conv1[0][0]
____________________________________________________________________________________________________
block1_batchnorm1 (BatchNormaliz (None, 998, 64)       256         block1_prelu1[0][0]
____________________________________________________________________________________________________
block1_pool1 (MaxPooling1D)      (None, 499, 64)       0           block1_batchnorm1[0][0]
____________________________________________________________________________________________________
block1_conv2 (Convolution1D)     (None, 497, 64)       12352       block1_pool1[0][0]
____________________________________________________________________________________________________
block1_prelu2 (PReLU)            (None, 497, 64)       31808       block1_conv2[0][0]
____________________________________________________________________________________________________
block1_batchnorm2 (BatchNormaliz (None, 497, 64)       256         block1_prelu2[0][0]
____________________________________________________________________________________________________
block1_pool2 (MaxPooling1D)      (None, 248, 64)       0           block1_batchnorm2[0][0]
____________________________________________________________________________________________________
block2_conv1 (Convolution1D)     (None, 246, 128)      24704       block1_pool2[0][0]
____________________________________________________________________________________________________
block2_prelu1 (PReLU)            (None, 246, 128)      31488       block2_conv1[0][0]
____________________________________________________________________________________________________
block2_batchnorm1 (BatchNormaliz (None, 246, 128)      512         block2_prelu1[0][0]
____________________________________________________________________________________________________
block2_conv2 (Convolution1D)     (None, 244, 128)      49280       block2_batchnorm1[0][0]
____________________________________________________________________________________________________
block2_prelu2 (PReLU)            (None, 244, 128)      31232       block2_conv2[0][0]
____________________________________________________________________________________________________
block2_batchnorm2 (BatchNormaliz (None, 244, 128)      512         block2_prelu2[0][0]
____________________________________________________________________________________________________
block2_dropout1 (Dropout)        (None, 244, 128)      0           block2_batchnorm2[0][0]
____________________________________________________________________________________________________
block2_pool1 (MaxPooling1D)      (None, 122, 128)      0           block2_dropout1[0][0]
____________________________________________________________________________________________________
block3_conv1 (Convolution1D)     (None, 120, 256)      98560       block2_pool1[0][0]
____________________________________________________________________________________________________
block3_prelu1 (PReLU)            (None, 120, 256)      30720       block3_conv1[0][0]
____________________________________________________________________________________________________
block3_batchnorm1 (BatchNormaliz (None, 120, 256)      1024        block3_prelu1[0][0]
____________________________________________________________________________________________________
block3_dropout1 (Dropout)        (None, 120, 256)      0           block3_batchnorm1[0][0]
____________________________________________________________________________________________________
block3_conv2 (Convolution1D)     (None, 118, 256)      196864      block3_dropout1[0][0]
____________________________________________________________________________________________________
block3_prelu2 (PReLU)            (None, 118, 256)      30208       block3_conv2[0][0]
____________________________________________________________________________________________________
block3_batchnorm2 (BatchNormaliz (None, 118, 256)      1024        block3_prelu2[0][0]
____________________________________________________________________________________________________
block3_dropout2 (Dropout)        (None, 118, 256)      0           block3_batchnorm2[0][0]
____________________________________________________________________________________________________
block3_pool1 (MaxPooling1D)      (None, 59, 256)       0           block3_dropout2[0][0]
____________________________________________________________________________________________________
wide_res_batchnorm1_block1_0_1 ( (None, 59, 256)       1024        block3_pool1[0][0]
____________________________________________________________________________________________________
wide_res_relu1_block1_0_1 (Activ (None, 59, 256)       0           wide_res_batchnorm1_block1_0_1[0]
____________________________________________________________________________________________________
wide_res_conv1_block1_0_1 (Convo (None, 59, 64)        49152       wide_res_relu1_block1_0_1[0][0]
____________________________________________________________________________________________________
wide_res_batchnorm1_block1_1_1 ( (None, 59, 64)        256         wide_res_conv1_block1_0_1[0][0]
____________________________________________________________________________________________________
wide_res_relu1_block1_1_1 (Activ (None, 59, 64)        0           wide_res_batchnorm1_block1_1_1[0]
____________________________________________________________________________________________________
wide_res_conv1_block1_1_1 (Convo (None, 59, 64)        12288       wide_res_relu1_block1_1_1[0][0]
____________________________________________________________________________________________________
wide_res_shortcut_block1_1_1 (Co (None, 59, 64)        16384       wide_res_relu1_block1_0_1[0][0]
____________________________________________________________________________________________________
merge_1 (Merge)                  (None, 59, 64)        0           wide_res_conv1_block1_1_1[0][0]
                                                                   wide_res_shortcut_block1_1_1[0][0
____________________________________________________________________________________________________
wide_res_batchnorm1_block1_0_2 ( (None, 59, 64)        256         merge_1[0][0]
____________________________________________________________________________________________________
wide_res_relu1_block1_0_2 (Activ (None, 59, 64)        0           wide_res_batchnorm1_block1_0_2[0]
____________________________________________________________________________________________________
wide_res_conv1_block1_0_2 (Convo (None, 59, 64)        12288       wide_res_relu1_block1_0_2[0][0]
____________________________________________________________________________________________________
wide_res_batchnorm1_block1_1_2 ( (None, 59, 64)        256         wide_res_conv1_block1_0_2[0][0]
____________________________________________________________________________________________________
wide_res_relu1_block1_1_2 (Activ (None, 59, 64)        0           wide_res_batchnorm1_block1_1_2[0]
____________________________________________________________________________________________________
wide_res_conv1_block1_1_2 (Convo (None, 59, 64)        12288       wide_res_relu1_block1_1_2[0][0]
____________________________________________________________________________________________________
merge_2 (Merge)                  (None, 59, 64)        0           wide_res_conv1_block1_1_2[0][0]
                                                                   merge_1[0][0]
____________________________________________________________________________________________________
wide_res_batchnorm1_block2_0_1 ( (None, 59, 64)        256         merge_2[0][0]
____________________________________________________________________________________________________
wide_res_relu1_block2_0_1 (Activ (None, 59, 64)        0           wide_res_batchnorm1_block2_0_1[0]
____________________________________________________________________________________________________
wide_res_conv1_block2_0_1 (Convo (None, 30, 128)       24576       wide_res_relu1_block2_0_1[0][0]
____________________________________________________________________________________________________
wide_res_batchnorm1_block2_1_1 ( (None, 30, 128)       512         wide_res_conv1_block2_0_1[0][0]
____________________________________________________________________________________________________
wide_res_relu1_block2_1_1 (Activ (None, 30, 128)       0           wide_res_batchnorm1_block2_1_1[0]
____________________________________________________________________________________________________
wide_res_conv1_block2_1_1 (Convo (None, 30, 128)       49152       wide_res_relu1_block2_1_1[0][0]
____________________________________________________________________________________________________
wide_res_shortcut_block2_1_1 (Co (None, 30, 128)       8192        wide_res_relu1_block2_0_1[0][0]
____________________________________________________________________________________________________
merge_3 (Merge)                  (None, 30, 128)       0           wide_res_conv1_block2_1_1[0][0]
                                                                   wide_res_shortcut_block2_1_1[0][0
____________________________________________________________________________________________________
wide_res_batchnorm1_block2_0_2 ( (None, 30, 128)       512         merge_3[0][0]
____________________________________________________________________________________________________
wide_res_relu1_block2_0_2 (Activ (None, 30, 128)       0           wide_res_batchnorm1_block2_0_2[0]
____________________________________________________________________________________________________
wide_res_conv1_block2_0_2 (Convo (None, 30, 128)       49152       wide_res_relu1_block2_0_2[0][0]
____________________________________________________________________________________________________
wide_res_batchnorm1_block2_1_2 ( (None, 30, 128)       512         wide_res_conv1_block2_0_2[0][0]
____________________________________________________________________________________________________
wide_res_relu1_block2_1_2 (Activ (None, 30, 128)       0           wide_res_batchnorm1_block2_1_2[0]
____________________________________________________________________________________________________
wide_res_conv1_block2_1_2 (Convo (None, 30, 128)       49152       wide_res_relu1_block2_1_2[0][0]
____________________________________________________________________________________________________
merge_4 (Merge)                  (None, 30, 128)       0           wide_res_conv1_block2_1_2[0][0]
                                                                   merge_3[0][0]
____________________________________________________________________________________________________
wide_res_net_batchnorm1 (BatchNo (None, 30, 128)       512         merge_4[0][0]
____________________________________________________________________________________________________
wide_res_net_relu1 (Activation)  (None, 30, 128)       0           wide_res_net_batchnorm1[0][0]
____________________________________________________________________________________________________
dropout1 (Dropout)               (None, 30, 128)       0           wide_res_net_relu1[0][0]
____________________________________________________________________________________________________
dropout1_pool1 (MaxPooling1D)    (None, 15, 128)       0           dropout1[0][0]
____________________________________________________________________________________________________
bidirectional_1 (Bidirectional)  (None, 15, 512)       591360      dropout1_pool1[0][0]
____________________________________________________________________________________________________
gru_dropout1 (Dropout)           (None, 15, 512)       0           bidirectional_1[0][0]
____________________________________________________________________________________________________
flatten (Flatten)                (None, 7680)          0           gru_dropout1[0][0]
____________________________________________________________________________________________________
fc1 (Dense)                      (None, 1024)          7865344     flatten[0][0]
____________________________________________________________________________________________________
fc1_prelu (PReLU)                (None, 1024)          1024        fc1[0][0]
____________________________________________________________________________________________________
fc1_batchnorm (BatchNormalizatio (None, 1024)          4096        fc1_prelu[0][0]
____________________________________________________________________________________________________
fc1_dropout (Dropout)            (None, 1024)          0           fc1_batchnorm[0][0]
____________________________________________________________________________________________________
fc2 (Dense)                      (None, 919)           941975      fc1_dropout[0][0]
____________________________________________________________________________________________________
fc2_sigmoid (Activation)         (None, 919)           0           fc2[0][0]
====================================================================================================
Total params: 10,296,023
Trainable params: 10,290,135
Non-trainable params: 5,888
____________________________________________________________________________________________________
2017-03-17 22:18:36,572 __main__     INFO     Retrieving training data...
2017-03-17 22:20:04,725 __main__     INFO     Retrieving validation data...
…
