…
Saving models/json/conv_net_8.json to models/json/conv_net_8.json.old
Saving models/yaml/conv_net_8.yaml to models/yaml/conv_net_8.yaml.old
Loading weights from models/weights/conv_net_8.hdf5 if it exists
Saving models/weights/conv_net_8.hdf5 to models/weights/conv_net_8.hdf5.old
Saving logs/half_set/conv_net_8.csv to logs/half_set/conv_net_8.csv.old
____________________________________________________________________________________________________
Layer (type)			 Output Shape	       Param #	   Connected to
====================================================================================================
convolution1d_1 (Convolution1D)  (None, 998, 128)      1664	   convolution1d_input_1[0][0]
____________________________________________________________________________________________________
activation_1 (Activation)	 (None, 998, 128)      0	   convolution1d_1[0][0]
____________________________________________________________________________________________________
batchnormalization_1 (BatchNorma (None, 998, 128)      512	   activation_1[0][0]
____________________________________________________________________________________________________
maxpooling1d_1 (MaxPooling1D)	 (None, 499, 128)      0	   batchnormalization_1[0][0]
____________________________________________________________________________________________________
convolution1d_2 (Convolution1D)  (None, 497, 256)      98560	   maxpooling1d_1[0][0]
____________________________________________________________________________________________________
activation_2 (Activation)	 (None, 497, 256)      0	   convolution1d_2[0][0]
____________________________________________________________________________________________________
batchnormalization_2 (BatchNorma (None, 497, 256)      1024	   activation_2[0][0]
____________________________________________________________________________________________________
maxpooling1d_2 (MaxPooling1D)	 (None, 248, 256)      0	   batchnormalization_2[0][0]
____________________________________________________________________________________________________
convolution1d_3 (Convolution1D)  (None, 244, 512)      655872	   maxpooling1d_2[0][0]
____________________________________________________________________________________________________
activation_3 (Activation)	 (None, 244, 512)      0	   convolution1d_3[0][0]
____________________________________________________________________________________________________
batchnormalization_3 (BatchNorma (None, 244, 512)      2048	   activation_3[0][0]
____________________________________________________________________________________________________
maxpooling1d_3 (MaxPooling1D)	 (None, 122, 512)      0	   batchnormalization_3[0][0]
____________________________________________________________________________________________________
convolution1d_4 (Convolution1D)  (None, 118, 512)      1311232	   maxpooling1d_3[0][0]
____________________________________________________________________________________________________
activation_4 (Activation)	 (None, 118, 512)      0	   convolution1d_4[0][0]
____________________________________________________________________________________________________
maxpooling1d_4 (MaxPooling1D)	 (None, 59, 512)       0	   activation_4[0][0]
____________________________________________________________________________________________________
flatten_1 (Flatten)		 (None, 30208)	       0	   maxpooling1d_4[0][0]
____________________________________________________________________________________________________
dense_1 (Dense) 		 (None, 1024)	       30934016    flatten_1[0][0]
____________________________________________________________________________________________________
…
Saving weights to models/weights/conv_net_8.hdf5 and epoch logs to logs/half_set/conv_net_8.csv
Saving models/json/conv_net_8.json to models/json/conv_net_8.json.old
Saving models/yaml/conv_net_8.yaml to models/yaml/conv_net_8.yaml.old
Loading weights from models/weights/conv_net_8.hdf5 if it exists
Saving logs/half_set/conv_net_8.csv to logs/half_set/conv_net_8.csv.old
____________________________________________________________________________________________________
Layer (type)			 Output Shape	       Param #	   Connected to
====================================================================================================
convolution1d_1 (Convolution1D)  (None, 998, 128)      1664	   convolution1d_input_1[0][0]
____________________________________________________________________________________________________
activation_1 (Activation)	 (None, 998, 128)      0	   convolution1d_1[0][0]
____________________________________________________________________________________________________
batchnormalization_1 (BatchNorma (None, 998, 128)      512	   activation_1[0][0]
____________________________________________________________________________________________________
maxpooling1d_1 (MaxPooling1D)	 (None, 499, 128)      0	   batchnormalization_1[0][0]
____________________________________________________________________________________________________
convolution1d_2 (Convolution1D)  (None, 497, 256)      98560	   maxpooling1d_1[0][0]
____________________________________________________________________________________________________
activation_2 (Activation)	 (None, 497, 256)      0	   convolution1d_2[0][0]
____________________________________________________________________________________________________
batchnormalization_2 (BatchNorma (None, 497, 256)      1024	   activation_2[0][0]
____________________________________________________________________________________________________
maxpooling1d_2 (MaxPooling1D)	 (None, 248, 256)      0	   batchnormalization_2[0][0]
____________________________________________________________________________________________________
convolution1d_3 (Convolution1D)  (None, 244, 512)      655872	   maxpooling1d_2[0][0]
____________________________________________________________________________________________________
activation_3 (Activation)	 (None, 244, 512)      0	   convolution1d_3[0][0]
____________________________________________________________________________________________________
batchnormalization_3 (BatchNorma (None, 244, 512)      2048	   activation_3[0][0]
____________________________________________________________________________________________________
convolution1d_4 (Convolution1D)  (None, 240, 512)      1311232	   batchnormalization_3[0][0]
____________________________________________________________________________________________________
activation_4 (Activation)	 (None, 240, 512)      0	   convolution1d_4[0][0]
____________________________________________________________________________________________________
maxpooling1d_3 (MaxPooling1D)	 (None, 120, 512)      0	   activation_4[0][0]
____________________________________________________________________________________________________
flatten_1 (Flatten)		 (None, 61440)	       0	   maxpooling1d_3[0][0]
____________________________________________________________________________________________________
dense_1 (Dense) 		 (None, 1024)	       62915584    flatten_1[0][0]
____________________________________________________________________________________________________
…
