Creating model from conv_net()
Building the model
Compiling model
____________________________________________________________________________________________________
Layer (type)			 Output Shape	       Param #	   Connected to
====================================================================================================
convolution1d_1 (Convolution1D)  (None, 998, 64)       832	   convolution1d_input_1[0][0]
____________________________________________________________________________________________________
prelu_1 (PReLU) 		 (None, 998, 64)       63872	   convolution1d_1[0][0]
____________________________________________________________________________________________________
batchnormalization_1 (BatchNorma (None, 998, 64)       256	   prelu_1[0][0]
____________________________________________________________________________________________________
convolution1d_2 (Convolution1D)  (None, 996, 64)       12352	   batchnormalization_1[0][0]
____________________________________________________________________________________________________
prelu_2 (PReLU) 		 (None, 996, 64)       63744	   convolution1d_2[0][0]
____________________________________________________________________________________________________
batchnormalization_2 (BatchNorma (None, 996, 64)       256	   prelu_2[0][0]
____________________________________________________________________________________________________
convolution1d_3 (Convolution1D)  (None, 994, 128)      24704	   batchnormalization_2[0][0]
____________________________________________________________________________________________________
prelu_3 (PReLU) 		 (None, 994, 128)      127232	   convolution1d_3[0][0]
____________________________________________________________________________________________________
batchnormalization_3 (BatchNorma (None, 994, 128)      512	   prelu_3[0][0]
____________________________________________________________________________________________________
dropout_1 (Dropout)		 (None, 994, 128)      0	   batchnormalization_3[0][0]
____________________________________________________________________________________________________
convolution1d_4 (Convolution1D)  (None, 992, 128)      49280	   dropout_1[0][0]
____________________________________________________________________________________________________
prelu_4 (PReLU) 		 (None, 992, 128)      126976	   convolution1d_4[0][0]
____________________________________________________________________________________________________
batchnormalization_4 (BatchNorma (None, 992, 128)      512	   prelu_4[0][0]
____________________________________________________________________________________________________
dropout_2 (Dropout)		 (None, 992, 128)      0	   batchnormalization_4[0][0]
____________________________________________________________________________________________________
convolution1d_5 (Convolution1D)  (None, 988, 256)      164096	   dropout_2[0][0]
____________________________________________________________________________________________________
prelu_5 (PReLU) 		 (None, 988, 256)      252928	   convolution1d_5[0][0]
____________________________________________________________________________________________________
batchnormalization_5 (BatchNorma (None, 988, 256)      1024	   prelu_5[0][0]
____________________________________________________________________________________________________
dropout_3 (Dropout)		 (None, 988, 256)      0	   batchnormalization_5[0][0]
____________________________________________________________________________________________________
convolution1d_6 (Convolution1D)  (None, 984, 256)      327936	   dropout_3[0][0]
____________________________________________________________________________________________________
prelu_6 (PReLU) 		 (None, 984, 256)      251904	   convolution1d_6[0][0]
____________________________________________________________________________________________________
activation_1 (Activation)	 (None, 984, 256)      0	   prelu_6[0][0]
====================================================================================================
Total params: 1,468,416
Trainable params: 1,467,136
Non-trainable params: 1,280
____________________________________________________________________________________________________
Saving models in json and yaml format to models/json/conv_net_23.json and  models/yaml/conv_net_23.yaml
Saving weights to models/weights/conv_net_23.hdf5 and epoch logs to models/csv/conv_net_23.csv
Retrieving train, validation, and test data

The date is 02/23/2017
The time is 01:12:12 AM

Loading weights from models/weights/conv_net_23.hdf5 if it exists
Running at most 70 epochs

Creating model from conv_net()
Building the model
Compiling model
____________________________________________________________________________________________________
Layer (type)			 Output Shape	       Param #	   Connected to
====================================================================================================
convolution1d_1 (Convolution1D)  (None, 998, 64)       832	   convolution1d_input_1[0][0]
____________________________________________________________________________________________________
prelu_1 (PReLU) 		 (None, 998, 64)       63872	   convolution1d_1[0][0]
____________________________________________________________________________________________________
batchnormalization_1 (BatchNorma (None, 998, 64)       256	   prelu_1[0][0]
____________________________________________________________________________________________________
convolution1d_2 (Convolution1D)  (None, 996, 64)       12352	   batchnormalization_1[0][0]
____________________________________________________________________________________________________
prelu_2 (PReLU) 		 (None, 996, 64)       63744	   convolution1d_2[0][0]
____________________________________________________________________________________________________
batchnormalization_2 (BatchNorma (None, 996, 64)       256	   prelu_2[0][0]
____________________________________________________________________________________________________
convolution1d_3 (Convolution1D)  (None, 994, 128)      24704	   batchnormalization_2[0][0]
____________________________________________________________________________________________________
prelu_3 (PReLU) 		 (None, 994, 128)      127232	   convolution1d_3[0][0]
____________________________________________________________________________________________________
batchnormalization_3 (BatchNorma (None, 994, 128)      512	   prelu_3[0][0]
____________________________________________________________________________________________________
dropout_1 (Dropout)		 (None, 994, 128)      0	   batchnormalization_3[0][0]
____________________________________________________________________________________________________
convolution1d_4 (Convolution1D)  (None, 992, 128)      49280	   dropout_1[0][0]
____________________________________________________________________________________________________
prelu_4 (PReLU) 		 (None, 992, 128)      126976	   convolution1d_4[0][0]
____________________________________________________________________________________________________
batchnormalization_4 (BatchNorma (None, 992, 128)      512	   prelu_4[0][0]
____________________________________________________________________________________________________
dropout_2 (Dropout)		 (None, 992, 128)      0	   batchnormalization_4[0][0]
____________________________________________________________________________________________________
convolution1d_5 (Convolution1D)  (None, 988, 256)      164096	   dropout_2[0][0]
____________________________________________________________________________________________________
prelu_5 (PReLU) 		 (None, 988, 256)      252928	   convolution1d_5[0][0]
____________________________________________________________________________________________________
batchnormalization_5 (BatchNorma (None, 988, 256)      1024	   prelu_5[0][0]
____________________________________________________________________________________________________
dropout_3 (Dropout)		 (None, 988, 256)      0	   batchnormalization_5[0][0]
____________________________________________________________________________________________________
convolution1d_6 (Convolution1D)  (None, 984, 256)      327936	   dropout_3[0][0]
____________________________________________________________________________________________________
prelu_6 (PReLU) 		 (None, 984, 256)      251904	   convolution1d_6[0][0]
____________________________________________________________________________________________________
flatten_1 (Flatten)		 (None, 251904)        0	   prelu_6[0][0]
____________________________________________________________________________________________________
activation_1 (Activation)	 (None, 251904)        0	   flatten_1[0][0]
====================================================================================================
Total params: 1,468,416
Trainable params: 1,467,136
Non-trainable params: 1,280
____________________________________________________________________________________________________
Saving models in json and yaml format to models/json/conv_net_23.json and  models/yaml/conv_net_23.yaml
…
Saving models/yaml/conv_net_23.yaml to models/yaml/conv_net_23.yaml.old
Retrieving train, validation, and test data

The date is 02/23/2017
The time is 01:13:46 AM

Loading weights from models/weights/conv_net_23.hdf5 if it exists
Running at most 70 epochs

Creating model from conv_net()
Building the model
Compiling model
____________________________________________________________________________________________________
Layer (type)			 Output Shape	       Param #	   Connected to
====================================================================================================
convolution1d_1 (Convolution1D)  (None, 998, 64)       832	   convolution1d_input_1[0][0]
____________________________________________________________________________________________________
prelu_1 (PReLU) 		 (None, 998, 64)       63872	   convolution1d_1[0][0]
____________________________________________________________________________________________________
batchnormalization_1 (BatchNorma (None, 998, 64)       256	   prelu_1[0][0]
____________________________________________________________________________________________________
convolution1d_2 (Convolution1D)  (None, 996, 64)       12352	   batchnormalization_1[0][0]
____________________________________________________________________________________________________
prelu_2 (PReLU) 		 (None, 996, 64)       63744	   convolution1d_2[0][0]
____________________________________________________________________________________________________
batchnormalization_2 (BatchNorma (None, 996, 64)       256	   prelu_2[0][0]
____________________________________________________________________________________________________
convolution1d_3 (Convolution1D)  (None, 994, 128)      24704	   batchnormalization_2[0][0]
____________________________________________________________________________________________________
prelu_3 (PReLU) 		 (None, 994, 128)      127232	   convolution1d_3[0][0]
____________________________________________________________________________________________________
batchnormalization_3 (BatchNorma (None, 994, 128)      512	   prelu_3[0][0]
____________________________________________________________________________________________________
dropout_1 (Dropout)		 (None, 994, 128)      0	   batchnormalization_3[0][0]
____________________________________________________________________________________________________
convolution1d_4 (Convolution1D)  (None, 992, 128)      49280	   dropout_1[0][0]
____________________________________________________________________________________________________
prelu_4 (PReLU) 		 (None, 992, 128)      126976	   convolution1d_4[0][0]
____________________________________________________________________________________________________
batchnormalization_4 (BatchNorma (None, 992, 128)      512	   prelu_4[0][0]
____________________________________________________________________________________________________
dropout_2 (Dropout)		 (None, 992, 128)      0	   batchnormalization_4[0][0]
____________________________________________________________________________________________________
convolution1d_5 (Convolution1D)  (None, 988, 256)      164096	   dropout_2[0][0]
____________________________________________________________________________________________________
prelu_5 (PReLU) 		 (None, 988, 256)      252928	   convolution1d_5[0][0]
____________________________________________________________________________________________________
batchnormalization_5 (BatchNorma (None, 988, 256)      1024	   prelu_5[0][0]
____________________________________________________________________________________________________
dropout_3 (Dropout)		 (None, 988, 256)      0	   batchnormalization_5[0][0]
____________________________________________________________________________________________________
convolution1d_6 (Convolution1D)  (None, 984, 256)      327936	   dropout_3[0][0]
____________________________________________________________________________________________________
prelu_6 (PReLU) 		 (None, 984, 256)      251904	   convolution1d_6[0][0]
____________________________________________________________________________________________________
maxpooling1d_1 (MaxPooling1D)	 (None, 492, 256)      0	   prelu_6[0][0]
____________________________________________________________________________________________________
flatten_1 (Flatten)		 (None, 125952)        0	   maxpooling1d_1[0][0]
____________________________________________________________________________________________________
dense_1 (Dense) 		 (None, 919)	       115750807   flatten_1[0][0]
____________________________________________________________________________________________________
activation_1 (Activation)	 (None, 919)	       0	   dense_1[0][0]
====================================================================================================
…
Retrieving train, validation, and test data

The date is 02/23/2017
The time is 01:19:33 AM

Loading weights from models/weights/conv_net_23.hdf5 if it exists
Running at most 70 epochs
Train on 2200000 samples, validate on 8000 samples
Epoch 1/70

Creating model from conv_net()
Building the model
Compiling model
____________________________________________________________________________________________________
Layer (type)			 Output Shape	       Param #	   Connected to
====================================================================================================
convolution1d_1 (Convolution1D)  (None, 998, 64)       832	   convolution1d_input_1[0][0]
____________________________________________________________________________________________________
prelu_1 (PReLU) 		 (None, 998, 64)       63872	   convolution1d_1[0][0]
____________________________________________________________________________________________________
batchnormalization_1 (BatchNorma (None, 998, 64)       256	   prelu_1[0][0]
____________________________________________________________________________________________________
convolution1d_2 (Convolution1D)  (None, 996, 64)       12352	   batchnormalization_1[0][0]
____________________________________________________________________________________________________
prelu_2 (PReLU) 		 (None, 996, 64)       63744	   convolution1d_2[0][0]
____________________________________________________________________________________________________
batchnormalization_2 (BatchNorma (None, 996, 64)       256	   prelu_2[0][0]
____________________________________________________________________________________________________
convolution1d_3 (Convolution1D)  (None, 994, 128)      24704	   batchnormalization_2[0][0]
____________________________________________________________________________________________________
prelu_3 (PReLU) 		 (None, 994, 128)      127232	   convolution1d_3[0][0]
____________________________________________________________________________________________________
batchnormalization_3 (BatchNorma (None, 994, 128)      512	   prelu_3[0][0]
____________________________________________________________________________________________________
dropout_1 (Dropout)		 (None, 994, 128)      0	   batchnormalization_3[0][0]
____________________________________________________________________________________________________
convolution1d_4 (Convolution1D)  (None, 992, 128)      49280	   dropout_1[0][0]
____________________________________________________________________________________________________
prelu_4 (PReLU) 		 (None, 992, 128)      126976	   convolution1d_4[0][0]
____________________________________________________________________________________________________
batchnormalization_4 (BatchNorma (None, 992, 128)      512	   prelu_4[0][0]
____________________________________________________________________________________________________
dropout_2 (Dropout)		 (None, 992, 128)      0	   batchnormalization_4[0][0]
____________________________________________________________________________________________________
convolution1d_5 (Convolution1D)  (None, 990, 256)      98560	   dropout_2[0][0]
____________________________________________________________________________________________________
prelu_5 (PReLU) 		 (None, 990, 256)      253440	   convolution1d_5[0][0]
____________________________________________________________________________________________________
batchnormalization_5 (BatchNorma (None, 990, 256)      1024	   prelu_5[0][0]
____________________________________________________________________________________________________
dropout_3 (Dropout)		 (None, 990, 256)      0	   batchnormalization_5[0][0]
____________________________________________________________________________________________________
convolution1d_6 (Convolution1D)  (None, 988, 256)      196864	   dropout_3[0][0]
____________________________________________________________________________________________________
prelu_6 (PReLU) 		 (None, 988, 256)      252928	   convolution1d_6[0][0]
____________________________________________________________________________________________________
batchnormalization_6 (BatchNorma (None, 988, 256)      1024	   prelu_6[0][0]
____________________________________________________________________________________________________
dropout_4 (Dropout)		 (None, 988, 256)      0	   batchnormalization_6[0][0]
____________________________________________________________________________________________________
maxpooling1d_1 (MaxPooling1D)	 (None, 494, 256)      0	   dropout_4[0][0]
____________________________________________________________________________________________________
flatten_1 (Flatten)		 (None, 126464)        0	   maxpooling1d_1[0][0]
____________________________________________________________________________________________________
dense_1 (Dense) 		 (None, 919)	       116221335   flatten_1[0][0]
____________________________________________________________________________________________________
activation_1 (Activation)	 (None, 919)	       0	   dense_1[0][0]
====================================================================================================
…
The time is 01:21:27 AM

Loading weights from models/weights/conv_net_23.hdf5 if it exists
Saving models/csv/conv_net_23.csv to models/csv/conv_net_23.csv.old
Running at most 70 epochs
Train on 2200000 samples, validate on 8000 samples
Epoch 1/70

Creating model from conv_net()
Building the model
Compiling model
____________________________________________________________________________________________________
Layer (type)			 Output Shape	       Param #	   Connected to
====================================================================================================
convolution1d_1 (Convolution1D)  (None, 998, 64)       832	   convolution1d_input_1[0][0]
____________________________________________________________________________________________________
prelu_1 (PReLU) 		 (None, 998, 64)       63872	   convolution1d_1[0][0]
____________________________________________________________________________________________________
batchnormalization_1 (BatchNorma (None, 998, 64)       256	   prelu_1[0][0]
____________________________________________________________________________________________________
convolution1d_2 (Convolution1D)  (None, 996, 64)       12352	   batchnormalization_1[0][0]
____________________________________________________________________________________________________
prelu_2 (PReLU) 		 (None, 996, 64)       63744	   convolution1d_2[0][0]
____________________________________________________________________________________________________
batchnormalization_2 (BatchNorma (None, 996, 64)       256	   prelu_2[0][0]
____________________________________________________________________________________________________
convolution1d_3 (Convolution1D)  (None, 994, 128)      24704	   batchnormalization_2[0][0]
____________________________________________________________________________________________________
prelu_3 (PReLU) 		 (None, 994, 128)      127232	   convolution1d_3[0][0]
____________________________________________________________________________________________________
batchnormalization_3 (BatchNorma (None, 994, 128)      512	   prelu_3[0][0]
____________________________________________________________________________________________________
dropout_1 (Dropout)		 (None, 994, 128)      0	   batchnormalization_3[0][0]
____________________________________________________________________________________________________
convolution1d_4 (Convolution1D)  (None, 992, 128)      49280	   dropout_1[0][0]
____________________________________________________________________________________________________
prelu_4 (PReLU) 		 (None, 992, 128)      126976	   convolution1d_4[0][0]
____________________________________________________________________________________________________
batchnormalization_4 (BatchNorma (None, 992, 128)      512	   prelu_4[0][0]
____________________________________________________________________________________________________
dropout_2 (Dropout)		 (None, 992, 128)      0	   batchnormalization_4[0][0]
____________________________________________________________________________________________________
convolution1d_5 (Convolution1D)  (None, 990, 256)      98560	   dropout_2[0][0]
____________________________________________________________________________________________________
prelu_5 (PReLU) 		 (None, 990, 256)      253440	   convolution1d_5[0][0]
____________________________________________________________________________________________________
batchnormalization_5 (BatchNorma (None, 990, 256)      1024	   prelu_5[0][0]
____________________________________________________________________________________________________
dropout_3 (Dropout)		 (None, 990, 256)      0	   batchnormalization_5[0][0]
____________________________________________________________________________________________________
convolution1d_6 (Convolution1D)  (None, 988, 256)      196864	   dropout_3[0][0]
____________________________________________________________________________________________________
prelu_6 (PReLU) 		 (None, 988, 256)      252928	   convolution1d_6[0][0]
____________________________________________________________________________________________________
batchnormalization_6 (BatchNorma (None, 988, 256)      1024	   prelu_6[0][0]
____________________________________________________________________________________________________
dropout_4 (Dropout)		 (None, 988, 256)      0	   batchnormalization_6[0][0]
____________________________________________________________________________________________________
convolution1d_7 (Convolution1D)  (None, 986, 1024)     787456	   dropout_4[0][0]
____________________________________________________________________________________________________
activation_1 (Activation)	 (None, 986, 1024)     0	   convolution1d_7[0][0]
====================================================================================================
Total params: 2,061,824
Trainable params: 2,060,032
Non-trainable params: 1,792
____________________________________________________________________________________________________
Saving models in json and yaml format to models/json/conv_net_23.json and  models/yaml/conv_net_23.yaml
…
Retrieving train, validation, and test data

The date is 02/23/2017
The time is 01:49:54 AM

Loading weights from models/weights/conv_net_23.hdf5 if it exists
Saving models/csv/conv_net_23.csv to models/csv/conv_net_23.csv.old
Running at most 70 epochs

Creating model from conv_net()
Building the model
Compiling model
____________________________________________________________________________________________________
Layer (type)			 Output Shape	       Param #	   Connected to
====================================================================================================
convolution1d_1 (Convolution1D)  (None, 998, 64)       832	   convolution1d_input_1[0][0]
____________________________________________________________________________________________________
prelu_1 (PReLU) 		 (None, 998, 64)       63872	   convolution1d_1[0][0]
____________________________________________________________________________________________________
batchnormalization_1 (BatchNorma (None, 998, 64)       256	   prelu_1[0][0]
____________________________________________________________________________________________________
convolution1d_2 (Convolution1D)  (None, 996, 64)       12352	   batchnormalization_1[0][0]
____________________________________________________________________________________________________
prelu_2 (PReLU) 		 (None, 996, 64)       63744	   convolution1d_2[0][0]
____________________________________________________________________________________________________
batchnormalization_2 (BatchNorma (None, 996, 64)       256	   prelu_2[0][0]
____________________________________________________________________________________________________
convolution1d_3 (Convolution1D)  (None, 994, 128)      24704	   batchnormalization_2[0][0]
____________________________________________________________________________________________________
prelu_3 (PReLU) 		 (None, 994, 128)      127232	   convolution1d_3[0][0]
____________________________________________________________________________________________________
batchnormalization_3 (BatchNorma (None, 994, 128)      512	   prelu_3[0][0]
____________________________________________________________________________________________________
dropout_1 (Dropout)		 (None, 994, 128)      0	   batchnormalization_3[0][0]
____________________________________________________________________________________________________
convolution1d_4 (Convolution1D)  (None, 992, 128)      49280	   dropout_1[0][0]
____________________________________________________________________________________________________
prelu_4 (PReLU) 		 (None, 992, 128)      126976	   convolution1d_4[0][0]
____________________________________________________________________________________________________
batchnormalization_4 (BatchNorma (None, 992, 128)      512	   prelu_4[0][0]
____________________________________________________________________________________________________
dropout_2 (Dropout)		 (None, 992, 128)      0	   batchnormalization_4[0][0]
____________________________________________________________________________________________________
convolution1d_5 (Convolution1D)  (None, 990, 256)      98560	   dropout_2[0][0]
____________________________________________________________________________________________________
prelu_5 (PReLU) 		 (None, 990, 256)      253440	   convolution1d_5[0][0]
____________________________________________________________________________________________________
batchnormalization_5 (BatchNorma (None, 990, 256)      1024	   prelu_5[0][0]
____________________________________________________________________________________________________
dropout_3 (Dropout)		 (None, 990, 256)      0	   batchnormalization_5[0][0]
____________________________________________________________________________________________________
convolution1d_6 (Convolution1D)  (None, 988, 256)      196864	   dropout_3[0][0]
____________________________________________________________________________________________________
prelu_6 (PReLU) 		 (None, 988, 256)      252928	   convolution1d_6[0][0]
____________________________________________________________________________________________________
batchnormalization_6 (BatchNorma (None, 988, 256)      1024	   prelu_6[0][0]
____________________________________________________________________________________________________
dropout_4 (Dropout)		 (None, 988, 256)      0	   batchnormalization_6[0][0]
____________________________________________________________________________________________________
convolution1d_7 (Convolution1D)  (None, 986, 919)      706711	   dropout_4[0][0]
____________________________________________________________________________________________________
activation_1 (Activation)	 (None, 986, 919)      0	   convolution1d_7[0][0]
====================================================================================================
Total params: 1,981,079
Trainable params: 1,979,287
Non-trainable params: 1,792
____________________________________________________________________________________________________
Saving models in json and yaml format to models/json/conv_net_23.json and  models/yaml/conv_net_23.yaml
…
Retrieving train, validation, and test data

The date is 02/23/2017
The time is 01:51:07 AM

Loading weights from models/weights/conv_net_23.hdf5 if it exists
Saving models/csv/conv_net_23.csv to models/csv/conv_net_23.csv.old
Running at most 70 epochs

Creating model from conv_net()
Building the model
Compiling model
____________________________________________________________________________________________________
Layer (type)			 Output Shape	       Param #	   Connected to
====================================================================================================
convolution1d_1 (Convolution1D)  (None, 998, 64)       832	   convolution1d_input_1[0][0]
____________________________________________________________________________________________________
prelu_1 (PReLU) 		 (None, 998, 64)       63872	   convolution1d_1[0][0]
____________________________________________________________________________________________________
batchnormalization_1 (BatchNorma (None, 998, 64)       256	   prelu_1[0][0]
____________________________________________________________________________________________________
convolution1d_2 (Convolution1D)  (None, 996, 64)       12352	   batchnormalization_1[0][0]
____________________________________________________________________________________________________
prelu_2 (PReLU) 		 (None, 996, 64)       63744	   convolution1d_2[0][0]
____________________________________________________________________________________________________
batchnormalization_2 (BatchNorma (None, 996, 64)       256	   prelu_2[0][0]
____________________________________________________________________________________________________
convolution1d_3 (Convolution1D)  (None, 994, 128)      24704	   batchnormalization_2[0][0]
____________________________________________________________________________________________________
prelu_3 (PReLU) 		 (None, 994, 128)      127232	   convolution1d_3[0][0]
____________________________________________________________________________________________________
batchnormalization_3 (BatchNorma (None, 994, 128)      512	   prelu_3[0][0]
____________________________________________________________________________________________________
dropout_1 (Dropout)		 (None, 994, 128)      0	   batchnormalization_3[0][0]
____________________________________________________________________________________________________
convolution1d_4 (Convolution1D)  (None, 992, 128)      49280	   dropout_1[0][0]
____________________________________________________________________________________________________
prelu_4 (PReLU) 		 (None, 992, 128)      126976	   convolution1d_4[0][0]
____________________________________________________________________________________________________
batchnormalization_4 (BatchNorma (None, 992, 128)      512	   prelu_4[0][0]
____________________________________________________________________________________________________
dropout_2 (Dropout)		 (None, 992, 128)      0	   batchnormalization_4[0][0]
____________________________________________________________________________________________________
convolution1d_5 (Convolution1D)  (None, 990, 256)      98560	   dropout_2[0][0]
____________________________________________________________________________________________________
prelu_5 (PReLU) 		 (None, 990, 256)      253440	   convolution1d_5[0][0]
____________________________________________________________________________________________________
batchnormalization_5 (BatchNorma (None, 990, 256)      1024	   prelu_5[0][0]
____________________________________________________________________________________________________
dropout_3 (Dropout)		 (None, 990, 256)      0	   batchnormalization_5[0][0]
____________________________________________________________________________________________________
convolution1d_6 (Convolution1D)  (None, 988, 256)      196864	   dropout_3[0][0]
____________________________________________________________________________________________________
prelu_6 (PReLU) 		 (None, 988, 256)      252928	   convolution1d_6[0][0]
____________________________________________________________________________________________________
batchnormalization_6 (BatchNorma (None, 988, 256)      1024	   prelu_6[0][0]
____________________________________________________________________________________________________
dropout_4 (Dropout)		 (None, 988, 256)      0	   batchnormalization_6[0][0]
____________________________________________________________________________________________________
convolution1d_7 (Convolution1D)  (None, 986, 919)      706711	   dropout_4[0][0]
____________________________________________________________________________________________________
flatten_1 (Flatten)		 (None, 906134)        0	   convolution1d_7[0][0]
____________________________________________________________________________________________________
activation_1 (Activation)	 (None, 906134)        0	   flatten_1[0][0]
====================================================================================================
Total params: 1,981,079
Trainable params: 1,979,287
Non-trainable params: 1,792
____________________________________________________________________________________________________
Saving models in json and yaml format to models/json/conv_net_23.json and  models/yaml/conv_net_23.yaml
…
Retrieving train, validation, and test data

The date is 02/23/2017
The time is 01:52:42 AM

Loading weights from models/weights/conv_net_23.hdf5 if it exists
Saving models/csv/conv_net_23.csv to models/csv/conv_net_23.csv.old
Running at most 70 epochs

Creating model from conv_net()
Building the model
Compiling model
____________________________________________________________________________________________________
Layer (type)			 Output Shape	       Param #	   Connected to
====================================================================================================
convolution1d_1 (Convolution1D)  (None, 998, 64)       832	   convolution1d_input_1[0][0]
____________________________________________________________________________________________________
prelu_1 (PReLU) 		 (None, 998, 64)       63872	   convolution1d_1[0][0]
____________________________________________________________________________________________________
batchnormalization_1 (BatchNorma (None, 998, 64)       256	   prelu_1[0][0]
____________________________________________________________________________________________________
convolution1d_2 (Convolution1D)  (None, 996, 64)       12352	   batchnormalization_1[0][0]
____________________________________________________________________________________________________
prelu_2 (PReLU) 		 (None, 996, 64)       63744	   convolution1d_2[0][0]
____________________________________________________________________________________________________
batchnormalization_2 (BatchNorma (None, 996, 64)       256	   prelu_2[0][0]
____________________________________________________________________________________________________
convolution1d_3 (Convolution1D)  (None, 994, 128)      24704	   batchnormalization_2[0][0]
____________________________________________________________________________________________________
prelu_3 (PReLU) 		 (None, 994, 128)      127232	   convolution1d_3[0][0]
____________________________________________________________________________________________________
batchnormalization_3 (BatchNorma (None, 994, 128)      512	   prelu_3[0][0]
____________________________________________________________________________________________________
dropout_1 (Dropout)		 (None, 994, 128)      0	   batchnormalization_3[0][0]
____________________________________________________________________________________________________
convolution1d_4 (Convolution1D)  (None, 992, 128)      49280	   dropout_1[0][0]
____________________________________________________________________________________________________
prelu_4 (PReLU) 		 (None, 992, 128)      126976	   convolution1d_4[0][0]
____________________________________________________________________________________________________
batchnormalization_4 (BatchNorma (None, 992, 128)      512	   prelu_4[0][0]
____________________________________________________________________________________________________
dropout_2 (Dropout)		 (None, 992, 128)      0	   batchnormalization_4[0][0]
____________________________________________________________________________________________________
convolution1d_5 (Convolution1D)  (None, 990, 256)      98560	   dropout_2[0][0]
____________________________________________________________________________________________________
prelu_5 (PReLU) 		 (None, 990, 256)      253440	   convolution1d_5[0][0]
____________________________________________________________________________________________________
batchnormalization_5 (BatchNorma (None, 990, 256)      1024	   prelu_5[0][0]
____________________________________________________________________________________________________
dropout_3 (Dropout)		 (None, 990, 256)      0	   batchnormalization_5[0][0]
____________________________________________________________________________________________________
convolution1d_6 (Convolution1D)  (None, 988, 256)      196864	   dropout_3[0][0]
____________________________________________________________________________________________________
prelu_6 (PReLU) 		 (None, 988, 256)      252928	   convolution1d_6[0][0]
____________________________________________________________________________________________________
batchnormalization_6 (BatchNorma (None, 988, 256)      1024	   prelu_6[0][0]
____________________________________________________________________________________________________
dropout_4 (Dropout)		 (None, 988, 256)      0	   batchnormalization_6[0][0]
____________________________________________________________________________________________________
convolution1d_7 (Convolution1D)  (None, -35, 919)      240911255   dropout_4[0][0]
____________________________________________________________________________________________________
flatten_1 (Flatten)		 (None, -32165)        0	   convolution1d_7[0][0]
____________________________________________________________________________________________________
…
Retrieving train, validation, and test data

The date is 02/23/2017
The time is 02:11:17 AM

Loading weights from models/weights/conv_net_23.hdf5 if it exists
Saving models/csv/conv_net_23.csv to models/csv/conv_net_23.csv.old
Running at most 70 epochs

Creating model from conv_net()
Building the model
Compiling model
____________________________________________________________________________________________________
Layer (type)			 Output Shape	       Param #	   Connected to
====================================================================================================
convolution1d_1 (Convolution1D)  (None, 998, 64)       832	   convolution1d_input_1[0][0]
____________________________________________________________________________________________________
prelu_1 (PReLU) 		 (None, 998, 64)       63872	   convolution1d_1[0][0]
____________________________________________________________________________________________________
batchnormalization_1 (BatchNorma (None, 998, 64)       256	   prelu_1[0][0]
____________________________________________________________________________________________________
convolution1d_2 (Convolution1D)  (None, 996, 64)       12352	   batchnormalization_1[0][0]
____________________________________________________________________________________________________
prelu_2 (PReLU) 		 (None, 996, 64)       63744	   convolution1d_2[0][0]
____________________________________________________________________________________________________
batchnormalization_2 (BatchNorma (None, 996, 64)       256	   prelu_2[0][0]
____________________________________________________________________________________________________
convolution1d_3 (Convolution1D)  (None, 994, 128)      24704	   batchnormalization_2[0][0]
____________________________________________________________________________________________________
prelu_3 (PReLU) 		 (None, 994, 128)      127232	   convolution1d_3[0][0]
____________________________________________________________________________________________________
batchnormalization_3 (BatchNorma (None, 994, 128)      512	   prelu_3[0][0]
____________________________________________________________________________________________________
dropout_1 (Dropout)		 (None, 994, 128)      0	   batchnormalization_3[0][0]
____________________________________________________________________________________________________
convolution1d_4 (Convolution1D)  (None, 992, 128)      49280	   dropout_1[0][0]
____________________________________________________________________________________________________
prelu_4 (PReLU) 		 (None, 992, 128)      126976	   convolution1d_4[0][0]
____________________________________________________________________________________________________
batchnormalization_4 (BatchNorma (None, 992, 128)      512	   prelu_4[0][0]
____________________________________________________________________________________________________
dropout_2 (Dropout)		 (None, 992, 128)      0	   batchnormalization_4[0][0]
____________________________________________________________________________________________________
convolution1d_5 (Convolution1D)  (None, 990, 256)      98560	   dropout_2[0][0]
____________________________________________________________________________________________________
prelu_5 (PReLU) 		 (None, 990, 256)      253440	   convolution1d_5[0][0]
____________________________________________________________________________________________________
batchnormalization_5 (BatchNorma (None, 990, 256)      1024	   prelu_5[0][0]
____________________________________________________________________________________________________
dropout_3 (Dropout)		 (None, 990, 256)      0	   batchnormalization_5[0][0]
____________________________________________________________________________________________________
convolution1d_6 (Convolution1D)  (None, 988, 256)      196864	   dropout_3[0][0]
____________________________________________________________________________________________________
prelu_6 (PReLU) 		 (None, 988, 256)      252928	   convolution1d_6[0][0]
____________________________________________________________________________________________________
batchnormalization_6 (BatchNorma (None, 988, 256)      1024	   prelu_6[0][0]
____________________________________________________________________________________________________
dropout_4 (Dropout)		 (None, 988, 256)      0	   batchnormalization_6[0][0]
____________________________________________________________________________________________________
convolution1d_7 (Convolution1D)  (None, 1, 919)        232441751   dropout_4[0][0]
____________________________________________________________________________________________________
flatten_1 (Flatten)		 (None, 919)	       0	   convolution1d_7[0][0]
____________________________________________________________________________________________________
activation_1 (Activation)	 (None, 919)	       0	   flatten_1[0][0]
====================================================================================================
…
The time is 02:16:53 AM

Loading weights from models/weights/conv_net_23.hdf5 if it exists
Saving models/csv/conv_net_23.csv to models/csv/conv_net_23.csv.old
Running at most 70 epochs
Train on 2200000 samples, validate on 8000 samples
Epoch 1/70

Creating model from conv_net()
Building the model
Compiling model
____________________________________________________________________________________________________
Layer (type)			 Output Shape	       Param #	   Connected to
====================================================================================================
convolution1d_1 (Convolution1D)  (None, 998, 64)       832	   convolution1d_input_1[0][0]
____________________________________________________________________________________________________
prelu_1 (PReLU) 		 (None, 998, 64)       63872	   convolution1d_1[0][0]
____________________________________________________________________________________________________
batchnormalization_1 (BatchNorma (None, 998, 64)       256	   prelu_1[0][0]
____________________________________________________________________________________________________
convolution1d_2 (Convolution1D)  (None, 996, 64)       12352	   batchnormalization_1[0][0]
____________________________________________________________________________________________________
prelu_2 (PReLU) 		 (None, 996, 64)       63744	   convolution1d_2[0][0]
____________________________________________________________________________________________________
batchnormalization_2 (BatchNorma (None, 996, 64)       256	   prelu_2[0][0]
____________________________________________________________________________________________________
convolution1d_3 (Convolution1D)  (None, 994, 128)      24704	   batchnormalization_2[0][0]
____________________________________________________________________________________________________
prelu_3 (PReLU) 		 (None, 994, 128)      127232	   convolution1d_3[0][0]
____________________________________________________________________________________________________
batchnormalization_3 (BatchNorma (None, 994, 128)      512	   prelu_3[0][0]
____________________________________________________________________________________________________
dropout_1 (Dropout)		 (None, 994, 128)      0	   batchnormalization_3[0][0]
____________________________________________________________________________________________________
convolution1d_4 (Convolution1D)  (None, 496, 128)      49280	   dropout_1[0][0]
____________________________________________________________________________________________________
prelu_4 (PReLU) 		 (None, 496, 128)      63488	   convolution1d_4[0][0]
____________________________________________________________________________________________________
batchnormalization_4 (BatchNorma (None, 496, 128)      512	   prelu_4[0][0]
____________________________________________________________________________________________________
dropout_2 (Dropout)		 (None, 496, 128)      0	   batchnormalization_4[0][0]
____________________________________________________________________________________________________
convolution1d_5 (Convolution1D)  (None, 246, 256)      164096	   dropout_2[0][0]
____________________________________________________________________________________________________
prelu_5 (PReLU) 		 (None, 246, 256)      62976	   convolution1d_5[0][0]
____________________________________________________________________________________________________
batchnormalization_5 (BatchNorma (None, 246, 256)      1024	   prelu_5[0][0]
____________________________________________________________________________________________________
dropout_3 (Dropout)		 (None, 246, 256)      0	   batchnormalization_5[0][0]
____________________________________________________________________________________________________
convolution1d_6 (Convolution1D)  (None, 121, 256)      327936	   dropout_3[0][0]
____________________________________________________________________________________________________
prelu_6 (PReLU) 		 (None, 121, 256)      30976	   convolution1d_6[0][0]
____________________________________________________________________________________________________
batchnormalization_6 (BatchNorma (None, 121, 256)      1024	   prelu_6[0][0]
____________________________________________________________________________________________________
dropout_4 (Dropout)		 (None, 121, 256)      0	   batchnormalization_6[0][0]
____________________________________________________________________________________________________
convolution1d_7 (Convolution1D)  (None, -1, 919)       28938391    dropout_4[0][0]
____________________________________________________________________________________________________
flatten_1 (Flatten)		 (None, -919)	       0	   convolution1d_7[0][0]
____________________________________________________________________________________________________
…
