Creating model from DanQ()
Building the model
Compiling model
____________________________________________________________________________________________________
Layer (type)                     Output Shape          Param #     Connected to
====================================================================================================
convolution1d_1 (Convolution1D)  (None, 975, 320)      33600       convolution1d_input_1[0][0]
____________________________________________________________________________________________________
maxpooling1d_1 (MaxPooling1D)    (None, 75, 320)       0           convolution1d_1[0][0]
____________________________________________________________________________________________________
bidirectional_1 (Bidirectional)  (None, 75, 512)       886272      maxpooling1d_1[0][0]
____________________________________________________________________________________________________
flatten_1 (Flatten)              (None, 38400)         0           bidirectional_1[0][0]
____________________________________________________________________________________________________
dense_1 (Dense)                  (None, 925)           35520925    flatten_1[0][0]
____________________________________________________________________________________________________
activation_1 (Activation)        (None, 925)           0           dense_1[0][0]
____________________________________________________________________________________________________
dense_2 (Dense)                  (None, 919)           850994      activation_1[0][0]
____________________________________________________________________________________________________
activation_2 (Activation)        (None, 919)           0           dense_2[0][0]
====================================================================================================
Total params: 37,291,791
Trainable params: 37,291,791
Non-trainable params: 0
____________________________________________________________________________________________________
Saving models in json and yaml format to models/json/danq_6.json and  models/yaml/danq_6.yaml
Saving weights to models/weights/danq_6.hdf5 and epoch logs to models/csv/danq_6.csv
…
